data/input_files/inputparams_700.npy (npy, 7328 bytes, 1 tensors)

array f8 [100, 3, 3]
0	0x4035000000000000	21.0
1	0xc085f031fe798b3c	-702.0244111533752
2	0xc0c37694b9c3c682	-9965.161919090202
3	0x4036000000000000	22.0
4	0x40a69f907645ef9e	2895.78215235281
5	0xc0c3979571890709	-10031.167527321277
6	0x4038000000000000	24.0
7	0xc0a32156bc1a76a6	-2448.6694038648448
8	0xc0c89b2bf71592e9	-12598.343477913602
9	0x4035000000000000	21.0
10	0xc08bc010808a62da	-888.0080576716821
11	0xc0c1426c867ba82b	-8836.84785409652
12	0x4036000000000000	22.0
13	0x409a3287828cbd56	1676.632333945328
14	0xc0c179be59690370	-8947.48710358303
15	0x4038000000000000	24.0
16	0xc0a0431d7c1b4149	-2081.5575874821848
17	0xc0c5c23967922a1e	-11140.448473234715
18	0x4035000000000000	21.0
19	0xc076b4aa9c9d916d	-363.29165326643016
20	0xc0c4dca3d90736fe	-10681.280060674526
21	0x4036000000000000	22.0
22	0x40a6e378d9a8e5d4	2929.736035612159
23	0xc0c0409b21e6f62f	-8321.211972112853
24	0x4038000000000000	24.0
25	0xc0a277153df75024	-2363.5414883885696
26	0xc0c789874d3f0915	-12051.05704486793
27	0x4035000000000000	21.0
28	0xc089e5716ecd9eb4	-828.6803871215875
29	0xc0bed488197362ed	-7892.531638347294
30	0x4036000000000000	22.0
31	0x40a2bebfd7b4c7dc	2399.374692582509
32	0xc0c2f6d0f3aeab54	-9709.632436593682
33	0x4038000000000000	24.0
34	0xc0a3b92dd9169d72	-2524.5895468775934
35	0xc0c678e99c2f69af	-11505.825078894237
36	0x4035000000000000	21.0
37	0xc08b39ebfecc939e	-871.2402320845174
38	0xc0c2a99724e8ce29	-9555.180813885368
39	0x4036000000000000	22.0
40	0x40a3598338c3775c	2476.756292446442
41	0xc0c1f1477df93bcb	-9186.558531908222
42	0x4038000000000000	24.0
43	0xc0a39dc4a4ae28be	-2510.8840689110502
44	0xc0c9d5fc02a31f79	-13227.968830480926
45	0x4035000000000000	21.0
46	0xc083861fcfd58c48	-624.7655331309734
47	0xc0bf699b7d67c262	-8041.6073822831695
48	0x4036000000000000	22.0
49	0x40a5bc3212714692	2782.0977969549795
50	0xc0c0387bcd5927db	-8304.967204231702
51	0x4038000000000000	24.0
52	0xc0a2f726a659c856	-2427.575487905221
53	0xc0c85824ac065e67	-12464.286499782653
54	0x4035000000000000	21.0
55	0xc0900e75a14a2d59	-1027.6148730840853
56	0xc0c30cf28dbd79bb	-9753.894950565757
57	0x4036000000000000	22.0
58	0x40a2d8e440ce55d6	2412.445806930521
59	0xc0c2f397859e918f	-9703.18376524074
60	0x4038000000000000	24.0
61	0xc0a304ea8c336182	-2434.458100896504
62	0xc0c5b454bed173ca	-11112.662073308504
63	0x4035000000000000	21.0
64	0xc090cecf9a3563a4	-1075.7027366964403
65	0xc0c35869a6b7951c	-9904.825400302703
66	0x4036000000000000	22.0
67	0x40a16a57031a58bc	2229.169945548374
68	0xc0c15a00484b08cd	-8884.00220621042
69	0x4038000000000000	24.0
70	0xc0a02e14666f4151	-2071.039844013904
71	0xc0c9294f5b74534c	-12882.619978466675
72	0x4035000000000000	21.0
73	0xc0875409865a2f26	-746.5046507878913
74	0xc0c1f29501b4a112	-9189.164114550254
75	0x4036000000000000	22.0
76	0x40a4ab9098c85f93	2645.7824156395595
77	0xc0bc45f8c2993ef5	-7237.971719339247
78	0x4038000000000000	24.0
79	0xc0a1a2cc4cf41e90	-2257.399024609309
80	0xc0c837ac65e5aac6	-12399.34685965384
81	0x4035000000000000	21.0
82	0xc080b3589304a10e	-534.4182491647387
83	0xc0c2223ffc83ed59	-9284.499893656628
84	0x4036000000000000	22.0
85	0x409f1da76f120c47	1991.413509637832
86	0xc0c3d4f34e652ea6	-10153.900829932954
87	0x4038000000000000	24.0
88	0xc0a080672a5e87a6	-2112.20149512678
89	0xc0c505eb2ee74d31	-10763.837368881885
90	0x4035000000000000	21.0
91	0xc089549923d019d6	-810.5747753389248
92	0xc0c11de71d5626d2	-8763.805582779842
93	0x4036000000000000	22.0
94	0x40a4d652278ec3ad	2667.160458051096
95	0xc0c1fd8b1b272723	-9211.086766141996
96	0x4038000000000000	24.0
97	0xc0a0fe2fa71f225f	-2175.09307191176
98	0xc0c5ccc27c55dd01	-11161.51941941539
99	0x4035000000000000	21.0
100	0xc08ac98ab23e59d0	-857.1927227851065
101	0xc0c51b196627e814	-10806.1984300502
102	0x4036000000000000	22.0
103	0x409d09fd7bf0a77f	1858.497543106292
104	0xc0be780f019be44b	-7800.058618300663
105	0x4038000000000000	24.0
106	0xc0a0e7163db3efcb	-2163.5434395055977
107	0xc0c91602d596b585	-12844.02214321006
108	0x4035000000000000	21.0
109	0xc08862ef08dc45b2	-780.3667161186952
110	0xc0c2c544d26f4b3f	-9610.537671958677
111	0x4036000000000000	22.0
112	0x40a0e97b759b76d9	2164.741131647356
113	0xc0c3e5cf1b844d0b	-10187.618027246112
114	0x4038000000000000	24.0
115	0xc09ef2be6098e640	-1980.6859153643163
116	0xc0c3b5774b68d34b	-10090.931988814516
117	0x4035000000000000	21.0
118	0xc07b5887e39b7e01	-437.5331760476984
119	0xc0c38eb127289262	-10013.384007522083
120	0x4036000000000000	22.0
121	0x40a160915895e0ed	2224.2838789784496
122	0xc0c2c98863b8c408	-9619.065543266028
123	0x4038000000000000	24.0
124	0xc09b95e552135c4b	-1765.47394590617
125	0xc0c96dc862eb9bca	-13019.565518809384
126	0x4035000000000000	21.0
127	0xc09097385deb4348	-1061.8050457725349
128	0xc0c37e50bce9ef44	-9980.630765191869
129	0x4036000000000000	22.0
130	0x40a4246710568d1e	2578.2012965247404
131	0xc0c13e0ed5f5b7ef	-8828.115904536067
132	0x4038000000000000	24.0
133	0xc09f05d45266387f	-1985.4573455783827
134	0xc0ca23cbe23a81bd	-13383.59284144721
135	0x4035000000000000	21.0
136	0xc0860f690afbd9a2	-705.926290481166
137	0xc0c042b431bf6def	-8325.407768181494
138	0x4036000000000000	22.0
139	0x409c1097af6e0d9e	1796.1481301494418
140	0xc0c02cb2b1cdd522	-8281.39605114848
141	0x4038000000000000	24.0
142	0xc0a158936659576d	-2220.2878902358266
143	0xc0c727c47e82f77a	-11855.535110827292
144	0x4035000000000000	21.0
145	0xc08fcbf8ba0dd3f3	-1017.4964486198718
146	0xc0c238dc2ca0d2de	-9329.720111945117
147	0x4036000000000000	22.0
148	0x40a2bb4efdef38fe	2397.654281116206
149	0xc0bdd4c17bc5f557	-7636.755794880292
150	0x4038000000000000	24.0
151	0xc0a095733f7f6709	-2122.7250938237453
152	0xc0c74441d82c1d28	-11912.51440955566
153	0x4035000000000000	21.0
154	0xc073370885dbf8f0	-307.4395807831452
155	0xc0c09ece45745e0c	-8509.611494584962
156	0x4036000000000000	22.0
157	0x40a32468b2568ea1	2450.2044856118305
158	0xc0c16b94554c9620	-8919.158853123954
159	0x4038000000000000	24.0
160	0xc09d41ed1aeba7f8	-1872.4815480061789
161	0xc0c53357feb698fd	-10854.687460732175
162	0x4035000000000000	21.0
163	0xc08cb6745cfda406	-918.8068179908448
164	0xc0c1c0f9f8f70c67	-9089.952910309845
165	0x4036000000000000	22.0
166	0x40a235fd21a6b756	2330.994397363548
167	0xc0c060845d974c9b	-8385.03410617104
168	0x4038000000000000	24.0
169	0xc0a1b3d27d44729a	-2265.9111119642157
170	0xc0c7ff50610f2b3e	-12286.627962013354
171	0x4035000000000000	21.0
172	0xc086572fa254e9ba	-714.8982588418796
173	0xc0c3db95e8ef27b8	-10167.17117108764
174	0x4036000000000000	22.0
175	0x40a55fa86c144124	2735.828949578239
176	0xc0c466bc648ac77d	-10445.471818301588
177	0x4038000000000000	24.0
178	0xc0a12527a0d71a5d	-2194.5773989886934
179	0xc0c7009de67ec118	-11777.233596653256
180	0x4035000000000000	21.0
181	0xc07ce066bf2385b3	-462.0250846278752
182	0xc0c4efbfb6ebd434	-10719.497769812217
183	0x4036000000000000	22.0
184	0x40a3c1319aa1e66e	2528.5968828767573
185	0xc0c39f946fc50588	-10047.159660937978
186	0x4038000000000000	24.0
187	0xc0a279a5559b3cf5	-2364.8229187499915
188	0xc0c5253d84438328	-10826.48059886841
189	0x4035000000000000	21.0
190	0xc0858fb976394178	-689.9655575249772
191	0xc0c72877c6595e42	-11856.935740633988
192	0x4036000000000000	22.0
193	0x40a11fad894ae743	2191.838938084345
194	0xc0c088de15fadc1a	-8465.735045773956
195	0x4038000000000000	24.0
196	0xc0a0e8516d3f1d9c	-2164.159036609997
197	0xc0c52cec03ebab9c	-10841.84386964683
198	0x4035000000000000	21.0
199	0xc086731acbcfd7f0	-718.3880840528273
200	0xc0c489c44d6dfd7f	-10515.533612965372
201	0x4036000000000000	22.0
202	0x40a0fc646c73d65e	2174.196139926832
203	0xc0c407f01e24b1d7	-10255.875919901691
204	0x4038000000000000	24.0
205	0xc0a35497a48bb4cb	-2474.296177259273
206	0xc0c765c80ad45a03	-11979.562830490066
207	0x4035000000000000	21.0
208	0xc08cb9e774ad1de4	-919.2380155110118
209	0xc0c2ef3fca573b31	-9694.498362449553
210	0x4036000000000000	22.0
211	0x40a1d1cf33b693cb	2280.904691415349
212	0xc0c51b83558326cf	-10807.02604712863
213	0x4038000000000000	24.0
214	0xc0a33af1284a26dd	-2461.4710105106774
215	0xc0c7c5267cf9a61a	-12170.300688940148
216	0x4035000000000000	21.0
217	0xc08dc93d1799dc4b	-953.1548301716188
218	0xc0c46ba22c4da568	-10455.266977029576
219	0x4036000000000000	22.0
220	0x40a46ca8ffc16b8a	2614.330076259973
221	0xc0c35fba164afd4c	-9919.453805326157
222	0x4038000000000000	24.0
223	0xc0a0eae4394c78ea	-2165.445749654541
224	0xc0c682435c25295b	-11524.526249547189
225	0x4035000000000000	21.0
226	0xc0879d36de33b8fc	-755.6517910042598
227	0xc0c22fa137ad897b	-9311.259511654023
228	0x4036000000000000	22.0
229	0x40a34aa651dfd841	2469.32484340205
230	0xc0c0f853020116e3	-8688.648498665023
231	0x4038000000000000	24.0
232	0xc09ff003b47d6664	-2044.0036182016129
233	0xc0c7f6bd5d540501	-12269.479410650676
234	0x4035000000000000	21.0
235	0xc08ec968757b3695	-985.1760053278
236	0xc0c165ac7de88b86	-8907.347592418791
237	0x4036000000000000	22.0
238	0x40a07eb4a1d3f8af	2111.35279714976
239	0xc0c2be57b34f5505	-9596.685159603609
240	0x4038000000000000	24.0
241	0xc0a0133a49510fa8	-2057.6138406116115
242	0xc0c848a1b7202829	-12433.263401050195
243	0x4035000000000000	21.0
244	0xc08e2e6832980341	-965.8008777500146
245	0xc0c00f2f5a1efaf0	-8222.369937775162
246	0x4036000000000000	22.0
247	0x40a1b38ee5d46330	2265.779097210987
248	0xc0c37deb7255c229	-9979.839426727109
249	0x4038000000000000	24.0
250	0xc09ff02c2acc9ce1	-2044.0431320162536
251	0xc0c96f75d23c2dfe	-13022.92047836538
252	0x4035000000000000	21.0
253	0xc0766a3522633fa3	-358.63797224778153
254	0xc0c0455fc0c07ac5	-8330.748069820353
255	0x4036000000000000	22.0
