data/input_files/inputparams_900.npy (npy, 7328 bytes, 1 tensors)

array f8 [100, 3, 3]
000000 00 00 00 00 00 00 35 40 25 71 53 d1 0f 3d 77 c0
       21.0 -371.8163617381527
000010 02 2e 95 de be ad c1 c0 00 00 00 00 00 00 36 40
       -9051.491167685952 22.0
000020 b6 40 58 5c ed d8 a2 40 26 16 b5 75 a3 d6 c2 c0
       2412.4635951594346 -9645.277029643836
000030 00 00 00 00 00 00 38 40 16 9d ca 28 e0 16 a2 c0
       24.0 -2315.4378112141376
000040 ba b7 13 09 c1 49 c7 c0 00 00 00 00 00 00 35 40
       -11923.508089508734 21.0
000050 9a 6e ba f8 92 6c 8a c0 d7 06 28 f1 f9 9b c1 c0
       -845.5717634739879 -9015.952672007885
000060 00 00 00 00 00 00 36 40 26 19 c9 2e fd a7 a6 40
       22.0 2899.994497570343
000070 cc 6e b4 93 fe a9 c0 c0 00 00 00 00 00 00 38 40
       -8531.98888259325 24.0
000080 e5 1c 77 1d e3 42 9d c0 cb dd 8f 18 35 72 c8 c0
       -1872.7217920886408 -12516.414812072084
000090 00 00 00 00 00 00 35 40 ef b8 e7 9e 10 2a 7e c0
       21.0 -482.6290577937752
0000a0 8b 50 8f e2 c6 2b c3 c0 00 00 00 00 00 00 36 40
       -9815.55378905709 22.0
0000b0 0b 41 56 fd cd 18 a7 40 d7 06 03 64 2a ae c0 c0
       2956.402323432388 -8540.331177118625
0000c0 00 00 00 00 00 00 38 40 e7 1c b2 6c f2 86 a0 c0
       24.0 -2115.4734855327874
0000d0 2e fb 1d 6a 18 0b c6 c0 00 00 00 00 00 00 35 40
       -11286.190738437315 21.0
0000e0 ad 39 dd e8 f2 0f 72 c0 76 73 87 0d aa b2 c3 c0
       -288.99680410781986 -10085.328537875535
0000f0 00 00 00 00 00 00 36 40 90 11 c9 e1 ae ca a7 40
       22.0 3045.341566356081
000100 ca 97 25 c3 33 08 c3 c0 00 00 00 00 00 00 38 40
       -9744.40439290916 24.0
000110 f4 d6 37 97 82 5a 9d c0 8f c3 58 ff 63 45 c6 c0
       -1878.627529976363 -11402.781230063903
000120 00 00 00 00 00 00 35 40 37 fe 86 01 34 2f 8a c0
       21.0 -837.9003935381251
000130 5a 24 b0 dd 50 94 c4 c0 00 00 00 00 00 00 36 40
       -10536.631765382528 22.0
000140 91 34 80 37 f2 b1 a1 40 ab e8 8d 7a a2 b2 c1 c0
       2264.973079687516 -9061.269365061386
000150 00 00 00 00 00 00 38 40 3f 87 68 9f 22 a8 a1 c0
       24.0 -2260.0676224389167
000160 84 d0 54 c1 0a ba c4 c0 00 00 00 00 00 00 35 40
       -10612.084025003256 21.0
000170 80 f9 5e 03 36 87 77 c0 e1 5e b5 fd 83 3f c3 c0
       -376.45068680858094 -9855.031180068328
000180 00 00 00 00 00 00 36 40 ea 68 26 b7 db d6 a2 40
       22.0 2411.429131698901
000190 1b 96 01 63 b0 03 c2 c0 00 00 00 00 00 00 38 40
       -9223.378021429342 24.0
0001a0 fd 41 ed a1 53 61 9e c0 42 28 d9 c3 c5 0a c8 c0
       -1944.331672389176 -12309.545039314897
0001b0 00 00 00 00 00 00 35 40 6e 69 9a 16 bb aa 88 c0
       21.0 -789.3413517058777
0001c0 fe ab 65 14 42 38 c2 c0 00 00 00 00 00 00 36 40
       -9328.51624747179 22.0
0001d0 59 a4 b2 22 36 be a2 40 2d 91 7b 8e 01 dd c1 c0
       2399.10573347336 -9146.01216072644
0001e0 00 00 00 00 00 00 38 40 c3 84 5e c8 58 e9 a2 c0
       24.0 -2420.67340369578
0001f0 77 bb b7 c2 94 cc c5 c0 00 00 00 00 00 00 35 40
       -11161.162192312751 21.0
000200 54 24 f2 8c f2 27 98 c0 6d 6f aa 3f e9 59 c7 c0
       -1545.9868657908128 -11955.822255424888
000210 00 00 00 00 00 00 36 40 d6 9a 20 29 f4 d4 a2 40
       22.0 2410.4768762768754
000220 6f 08 2f 23 ff 4c c0 c0 00 00 00 00 00 00 38 40
       -8345.993261221998 24.0
000230 ea 51 c5 8c 34 25 a0 c0 ca 3a b9 a8 ec 8e c6 c0
       -2066.602636495828 -11549.84889903422
000240 00 00 00 00 00 00 35 40 00 df e2 6a cf ff 7e c0
       21.0 -495.9881390440132
000250 55 4d 06 01 6c 52 c1 c0 00 00 00 00 00 00 36 40
       -8868.843781268844 22.0
000260 d9 ce d6 de 69 a4 9b 40 c6 a5 47 00 a2 3f c1 c0
       1769.1033891261816 -8831.265633541054
000270 00 00 00 00 00 00 38 40 aa 08 35 0e c9 63 a0 c0
       24.0 -2097.892686517055
000280 f4 9f 5b f3 b2 0d c7 c0 00 00 00 00 00 00 35 40
       -11803.398051694014 21.0
000290 e6 c4 f1 f4 1c f7 80 c0 ca 87 64 29 28 39 c3 c0
       -542.8891390693868 -9842.313763204864
0002a0 00 00 00 00 00 00 36 40 7e 5c b7 50 86 95 a1 40
       22.0 2250.762334566155
0002b0 3a 1d 70 99 b0 0a c5 c0 00 00 00 00 00 00 38 40
       -10773.379682554503 24.0
0002c0 ed bc 24 b4 03 6f a1 c0 86 36 11 0c 3f 97 c6 c0
       -2231.507233760893 -11566.492555762885
0002d0 00 00 00 00 00 00 35 40 1a 17 0a bb fa 04 81 c0
       21.0 -544.6224270618725
0002e0 50 8c 96 10 87 5c c5 c0 00 00 00 00 00 00 36 40
       -10937.055193727982 22.0
0002f0 9d 60 e2 57 12 8f a2 40 ca f6 af 81 12 66 c2 c0
       2375.5358267538963 -9420.144582744124
000300 00 00 00 00 00 00 38 40 f6 56 2c 8f c5 97 a3 c0
       24.0 -2507.8858579498437
000310 7c 24 ae 8e 7b 2e ca c0 00 00 00 00 00 00 35 40
       -13404.9652917555 21.0
000320 b7 43 44 ba 08 e6 88 c0 b0 a4 25 3d c0 54 c0 c0
       -796.754261525456 -8361.501866059698
000330 00 00 00 00 00 00 36 40 b8 65 07 ef 70 f9 a2 40
       22.0 2428.720573645751
000340 51 27 7b 50 91 51 c3 c0 00 00 00 00 00 00 38 40
       -9891.1352685873 24.0
000350 70 5e f8 cd 80 51 a1 c0 d4 f9 ba 59 e4 a6 c6 c0
       -2216.751571427849 -11597.783988353716
000360 00 00 00 00 00 00 35 40 5f 82 9b 7b 25 c4 8b c0
       21.0 -888.5183021687661
000370 be a4 f4 8b c7 ea c3 c0 00 00 00 00 00 00 36 40
       -10197.55895860714 22.0
000380 42 a9 cd b9 41 5f a1 40 39 97 0e ca 28 58 c1 c0
       2223.6283706921686 -8880.31866629013
000390 00 00 00 00 00 00 38 40 f5 a9 ac 21 4f 66 9f c0
       24.0 -2009.5772768954023
0003a0 bc b7 0e 5a 1e b7 c6 c0 00 00 00 00 00 00 35 40
       -11630.23712333652 21.0
0003b0 b8 84 78 a1 9e fc 8d c0 bb a1 72 0b 48 d0 c3 c0
       -959.5774564185622 -10144.56284935853
0003c0 00 00 00 00 00 00 36 40 81 db 96 ee 4f 38 a0 40
       22.0 2076.1561171668004
0003d0 1e 8c e9 99 13 62 c3 c0 00 00 00 00 00 00 38 40
       -9924.153134530465 24.0
0003e0 b5 7a 9c 25 86 d1 a3 c0 dd 5c fb 42 fa ef c6 c0
       -2536.762005701045 -11743.95516912493
0003f0 00 00 00 00 00 00 35 40 b5 5d cc 7e dd e3 8e c0
       21.0 -988.4831520048234
000400 7e 76 06 96 ec 64 c1 c0 00 00 00 00 00 00 36 40
       -8905.848328407152 22.0
000410 1d 4b c6 5f 4d 5d 9e 40 4b 9a 52 a3 97 f1 c2 c0
       1943.3255606635423 -9699.184671712244
000420 00 00 00 00 00 00 38 40 b4 b1 37 45 54 46 a1 c0
       24.0 -2211.1645905880378
000430 3b 7d 83 46 e3 a6 c9 c0 00 00 00 00 00 00 35 40
       -13133.7755894052 21.0
000440 b7 2d ea 94 2e 12 8d c0 48 d8 3a e1 17 73 c3 c0
       -930.272744969864 -9958.18656096993
000450 00 00 00 00 00 00 36 40 00 41 8b 10 39 48 a4 40
       22.0 2596.1114543454023
000460 70 c3 b0 bb 2a 49 c0 c0 00 00 00 00 00 00 38 40
       -8338.333852858952 24.0
000470 fd a7 ce 83 64 70 a2 c0 80 46 38 78 61 e5 c6 c0
       -2360.1963181095184 -11722.761481317924
000480 00 00 00 00 00 00 35 40 b0 72 c9 eb 47 c4 8c c0
       21.0 -920.5351176965833
000490 7b dc ca 45 ae 39 c1 c0 00 00 00 00 00 00 36 40
       -8819.361504895836 22.0
0004a0 d0 fd 1f d7 f3 34 a0 40 37 3f 75 2a 44 b3 c1 c0
       2074.476250648244 -9062.532545715205
0004b0 00 00 00 00 00 00 38 40 e8 43 d6 30 8e d5 9e c0
       24.0 -1973.38885817327
0004c0 31 37 05 64 97 5b cb c0 00 00 00 00 00 00 35 40
       -14007.18273987956 21.0
0004d0 6a 1a cf 79 d0 59 7f c0 0c 9e 4b ee e6 10 bf c0
       -501.61339741611175 -7952.902073598943
0004e0 00 00 00 00 00 00 36 40 1a 5f 0e f3 d7 50 a2 40
       22.0 2344.421776246175
0004f0 3b d5 b3 57 e5 f5 c2 c0 00 00 00 00 00 00 38 40
       -9707.791738967053 24.0
000500 a1 ce 94 23 90 dc a0 c0 aa 6a 87 48 b2 9f c5 c0
       -2158.281521463607 -11071.392838408548
000510 00 00 00 00 00 00 35 40 34 6d 85 40 a7 84 90 c0
       21.0 -1057.163332066336
000520 18 c8 1b 4b 7b 7c c3 c0 00 00 00 00 00 00 36 40
       -9976.963229630186 22.0
000530 41 4a 9e b8 fa 82 a3 40 0b d2 b1 93 bb d4 c2 c0
       2497.489689776005 -9641.465444781838
000540 00 00 00 00 00 00 38 40 3f b7 cc 7c 5c 1a a1 c0
       24.0 -2189.1806396459283
000550 8a 34 42 a3 cd 24 c7 c0 00 00 00 00 00 00 35 40
       -11849.606544757513 21.0
000560 8a c6 e3 64 85 d9 90 c0 50 64 48 aa 32 72 c2 c0
       -1078.3802676763466 -9444.395821618062
000570 00 00 00 00 00 00 36 40 6d 13 a7 03 37 da a3 40
       22.0 2541.107449742433
000580 cf 7c 35 77 37 72 c2 c0 00 00 00 00 00 00 38 40
       -9444.433325468008 24.0
000590 25 44 13 6f 08 47 a1 c0 6f 7d ba 26 31 89 ca c0
       -2211.51647243697 -13586.383994399306
0005a0 00 00 00 00 00 00 35 40 db d9 9e 45 40 2e 78 c0
       21.0 -386.8906913952939
0005b0 8d bc 80 53 97 00 c1 c0 00 00 00 00 00 00 36 40
       -8705.182235805574 22.0
0005c0 db c8 a0 26 71 fe a3 40 34 69 f7 21 e6 d3 c1 c0
       2559.2209978337464 -9127.797911573762
0005d0 00 00 00 00 00 00 38 40 a7 b2 49 eb 52 c4 a0 c0
       24.0 -2146.1619513540822
0005e0 74 dc 16 5c 15 56 c7 c0 00 00 00 00 00 00 35 40
       -11948.166872842448 21.0
0005f0 6c 1e e8 8e 0c 3e 8f c0 7f 4c af 5b 66 73 c0 c0
       -999.756131947926 -8422.799672996856
000600 00 00 00 00 00 00 36 40 8b f7 41 b2 29 d4 9d 40
       22.0 1909.0407190615977
000610 03 ce e9 da 65 5e c0 c0 00 00 00 00 00 00 38 40
       -8380.795743203727 24.0
000620 00 cc 3e 80 60 a7 a0 c0 29 8f cf 99 36 32 c5 c0
       -2131.6884784339927 -10852.42656893244
000630 00 00 00 00 00 00 35 40 98 5b d8 f4 5c 52 91 c0
       21.0 -1108.590777760115
000640 76 b0 f0 ea 7c ae bf c0 00 00 00 00 00 00 36 40
       -8110.487959902841 22.0
000650 9b d3 a7 40 6f e8 a0 40 ab f1 c0 e4 38 ed c1 c0
       2164.217290157872 -9178.444481008532
000660 00 00 00 00 00 00 38 40 c1 9c 6e 26 0f 12 a0 c0
       24.0 -2057.029590088496
000670 19 42 e4 ea 06 7a c7 c0 00 00 00 00 00 00 35 40
       -12020.054043323778 21.0
000680 06 16 5d e5 01 de 86 c0 c8 35 09 5b 3e 61 c4 c0
       -731.7509257576319 -10434.487153197537
000690 00 00 00 00 00 00 36 40 7e 32 0a cd f6 c3 a1 40
       22.0 2273.98203307978
0006a0 8c 93 2e 02 a2 f7 c0 c0 00 00 00 00 00 00 38 40
       -8687.26569158749 24.0
0006b0 5f 13 65 43 04 ea 9c c0 b3 15 89 58 98 5b c5 c0
       -1850.5041633408616 -10935.190201888652
0006c0 00 00 00 00 00 00 35 40 94 eb 01 fc 16 4d 83 c0
       21.0 -617.6362228536623
0006d0 4e 1b 76 a4 1d 25 c4 c0 00 00 00 00 00 00 36 40
       -10314.231581462223 22.0
0006e0 d7 73 55 b8 59 fa a2 40 e0 34 76 42 10 59 c0 c0
       2429.1752344802767 -8370.127028251474
0006f0 00 00 00 00 00 00 38 40 c9 b4 c9 84 33 e8 9e c0
       24.0 -1978.0503112331955
000700 ba 4d 82 7e e5 48 c7 c0 00 00 00 00 00 00 35 40
       -11921.792923248246 21.0
000710 0d d1 42 47 c1 9d 76 c0 e6 a9 95 bb 5b 9d c3 c0
       -361.8596871004127 -10042.716662128409
000720 00 00 00 00 00 00 36 40 5d 81 bb 0e 5a 1a a2 40
       22.0 2317.1758936496176
000730 24 6b f6 91 b9 8b c2 c0 00 00 00 00 00 00 38 40
       -9495.449766924205 24.0
000740 06 e2 9f 3f 81 99 a1 c0 0d a8 5e 6e 4f 20 c9 c0
       -2252.7524385417373 -12864.620555717522
000750 00 00 00 00 00 00 35 40 9f 01 ed 69 e6 6d 86 c0
       21.0 -717.7375067249412
000760 c9 40 18 25 98 e4 c4 c0 00 00 00 00 00 00 36 40
       -10697.188632041582 22.0
000770 f7 4c d5 ac 46 d3 a3 40 37 80 64 30 6e 86 bf c0
       2537.638037362714 -8070.430425912192
000780 00 00 00 00 00 00 38 40 2c 84 4e 38 60 36 a3 c0
       24.0 -2459.1879295860617
000790 d1 d0 51 a5 64 63 c4 c0 00 00 00 00 00 00 35 40
       -10438.78629515358 21.0
0007a0 72 de 51 14 1f a6 8a c0 d7 6c 48 08 20 cb c3 c0
       -852.7651754756937 -10134.250252774376
0007b0 00 00 00 00 00 00 36 40 81 42 48 a0 01 94 a0 40
       22.0 2122.0031759816343
0007c0 94 f4 9e 5d 9d 69 c1 c0 00 00 00 00 00 00 38 40
       -8915.229419583724 24.0
0007d0 79 7d f1 f0 d5 2a a0 c0 28 b0 7a 9e 99 10 c6 c0
       -2069.417853876654 -11297.200148902906
0007e0 00 00 00 00 00 00 35 40 18 f8 92 fb da 5a 8b c0
       21.0 -875.3569251520121
0007f0 20 47 96 3a 83 df c3 c0 00 00 00 00 00 00 36 40
       -10175.025225434045 22.0
