data/input_files/inputparams_500.npy (npy, 7328 bytes, 1 tensors)

array f8 [100, 3, 3]
000000 00 00 00 00 00 00 35 40 fb bd 89 be d1 ce 88 c0
       21.0 -793.8524142037489
000010 46 ab 8e b7 99 76 c2 c0 00 00 00 00 00 00 36 40
       -9453.200914224271 22.0
000020 17 8f e0 a7 3d a5 a0 40 a9 f5 b6 30 46 1b c2 c0
       2130.620421426265 -9270.548361654235
000030 00 00 00 00 00 00 38 40 18 4f 90 35 50 8e a4 c0
       24.0 -2631.1566586586523
000040 db ce 46 a6 54 08 c4 c0 00 00 00 00 00 00 35 40
       -10256.661324358944 21.0
000050 77 16 0e 69 70 bb 8b c0 ae 19 59 c5 3b 1e c5 c0
       -887.4298878765684 -10812.466960084475
000060 00 00 00 00 00 00 36 40 10 ac a3 10 d2 bc 9f 40
       22.0 2031.2051415990609
000070 12 7c b6 64 0c 53 c1 c0 00 00 00 00 00 00 38 40
       -8870.096823511678 24.0
000080 ec 59 46 f2 d5 bf a2 c0 16 da d2 1d 56 3d c6 c0
       -2399.9178640351074 -11386.67278514527
000090 00 00 00 00 00 00 35 40 95 c4 0c c5 d2 6e 88 c0
       21.0 -781.8529149053089
0000a0 09 47 9f 3e 14 aa c2 c0 00 00 00 00 00 00 36 40
       -9556.1581610772 22.0
0000b0 8b 17 ad 8e 78 23 a1 40 ab 65 7e eb ce 39 c1 c0
       2193.735463532566 -8819.616561698573
0000c0 00 00 00 00 00 00 38 40 c7 eb 0d 88 80 0b a3 c0
       24.0 -2437.7510380125345
0000d0 2f d0 a5 e4 12 e2 c7 c0 00 00 00 00 00 00 35 40
       -12228.147602774288 21.0
0000e0 5c 44 5b fc a7 27 8a c0 83 db 58 ed b0 40 c0 c0
       -836.9570243005978 -8321.382243258651
0000f0 00 00 00 00 00 00 36 40 38 59 19 4a 8b 22 a2 40
       22.0 2321.27204970564
000100 b4 4d 92 79 4e 21 c1 c0 00 00 00 00 00 00 38 40
       -8770.613085067693 24.0
000110 54 d3 05 c3 93 1f 9a c0 3b 4d 36 ed cd 2f c8 c0
       -1671.8942986402735 -12383.60880163928
000120 00 00 00 00 00 00 35 40 a8 65 37 d4 1e c3 92 c0
       21.0 -1200.7801064163014
000130 85 cc a4 42 a7 8c c2 c0 00 00 00 00 00 00 36 40
       -9497.306721305717 22.0
000140 30 55 be bf e8 88 a1 40 aa db ea 3c ca d2 c0 c0
       2244.454587886714 -8613.57998405195
000150 00 00 00 00 00 00 38 40 a7 71 53 9c 63 62 a2 c0
       24.0 -2353.1945520473705
000160 75 77 16 70 0c 88 c8 c0 00 00 00 00 00 00 35 40
       -12560.09717064698 21.0
000170 f7 20 a8 d1 67 c9 82 c0 de b4 e8 5a c4 b2 c3 c0
       -601.1756928572712 -10085.53402432281
000180 00 00 00 00 00 00 36 40 bd d6 9c d5 72 1f a6 40
       22.0 2831.7242859851963
000190 10 cb 96 66 0e dc c0 c0 00 00 00 00 00 00 38 40
       -8632.11250576892 24.0
0001a0 65 34 a7 6c 50 6c a0 c0 df ed 94 48 78 be c2 c0
       -2102.1570789576967 -9596.939715019367
0001b0 00 00 00 00 00 00 35 40 ba 7f 4a e2 52 63 8b c0
       21.0 -876.4154706783513
0001c0 47 a5 7d d9 85 6d c2 c0 00 00 00 00 00 00 36 40
       -9435.045699792578 22.0
0001d0 6f 2b 2d 63 3d ec a1 40 6f e3 1f 2d 1e 16 c2 c0
       2294.1198972812194 -9260.23575209241
0001e0 00 00 00 00 00 00 38 40 26 86 1f fa 30 9a a1 c0
       24.0 -2253.0956582881217
0001f0 9f 87 33 8a 1c d8 c7 c0 00 00 00 00 00 00 35 40
       -12208.222967568609 21.0
000200 d4 52 0f 7d 29 83 82 c0 f0 ea c3 87 ef f9 c1 c0
       -592.3952580639984 -9203.87133072826
000210 00 00 00 00 00 00 36 40 32 2c 94 79 52 c6 a3 40
       22.0 2531.161083822627
000220 82 f6 f9 9b 97 e7 c0 c0 00 00 00 00 00 00 38 40
       -8655.184447522512 24.0
000230 9f c3 56 a2 3d 2a 9c c0 07 37 ae 82 4d dd c7 c0
       -1802.5601895863435 -12218.605550553197
000240 00 00 00 00 00 00 35 40 fa 1d 49 14 10 e4 91 c0
       21.0 -1145.015702383475
000250 94 d6 7b 71 97 71 c2 c0 00 00 00 00 00 00 36 40
       -9443.183150748991 22.0
000260 f3 87 53 11 9e ad a3 40 51 b2 de 3b 7e 66 c0 c0
       2518.8087259391264 -8396.986202084607
000270 00 00 00 00 00 00 38 40 57 81 a3 1b 9c 14 9e c0
       24.0 -1925.152449183244
000280 b7 c6 c2 22 ad e7 c6 c0 00 00 00 00 00 00 35 40
       -11727.352623316792 21.0
000290 0d b6 57 cb ab 19 85 c0 0a ad a5 fb 74 5c c1 c0
       -675.2088839390213 -8888.91392966222
0002a0 00 00 00 00 00 00 36 40 2d 5a 2e 03 d5 de a5 40
       22.0 2799.4160398945883
0002b0 9f 81 ce 51 e4 1d c1 c0 00 00 00 00 00 00 38 40
       -8763.783746541301 24.0
0002c0 d5 4c 4e b5 ca 57 a2 c0 69 d2 93 72 01 10 c7 c0
       -2347.8959145039357 -11808.011309125652
0002d0 00 00 00 00 00 00 35 40 ba 1a 44 e6 0d 35 89 c0
       21.0 -806.6317868538529
0002e0 f9 fc 8e d5 03 a4 c2 c0 00 00 00 00 00 00 36 40
       -9544.02995478966 22.0
0002f0 2a 16 84 65 0f 2a a1 40 ef 98 58 48 68 1c c2 c0
       2197.0300713803344 -9272.814707827258
000300 00 00 00 00 00 00 38 40 fa a8 97 1a 32 86 a0 c0
       24.0 -2115.09785913408
000310 b5 45 ba 1c c6 8b c5 c0 00 00 00 00 00 00 35 40
       -11031.547751697575 21.0
000320 7a c3 f5 8a 26 75 8a c0 0f 5a 2a b4 aa d1 c2 c0
       -846.6438197326927 -9635.33362321279
000330 00 00 00 00 00 00 36 40 37 6b 68 22 ee fb a0 40
       22.0 2173.965106261337
000340 c2 c4 b9 26 58 dd c0 c0 00 00 00 00 00 00 38 40
       -8634.68868181331 24.0
000350 69 d9 ad ab 4f ab a3 c0 78 a4 c4 59 ad 98 c9 c0
       -2517.6556066825765 -13105.35430200606
000360 00 00 00 00 00 00 35 40 41 87 84 88 bb ab 8b c0
       21.0 -885.4665689805771
000370 08 bb fd 1b 55 21 c1 c0 00 00 00 00 00 00 36 40
       -8770.664916721653 22.0
000380 3e 6e 79 b5 21 cf a4 40 45 87 33 21 39 6f c3 c0
       2663.565837664325 -9950.446325722742
000390 00 00 00 00 00 00 38 40 34 b0 ed 0a 99 f9 a0 c0
       24.0 -2172.7989115026085
0003a0 f2 7d 58 d9 f4 64 c7 c0 00 00 00 00 00 00 35 40
       -11977.912882863518 21.0
0003b0 b0 17 78 a4 1d d3 78 c0 56 1c 2a 7e 87 c3 c1 c0
       -397.1947369280924 -9095.058537734829
0003c0 00 00 00 00 00 00 36 40 f8 b4 90 29 70 17 a3 40
       22.0 2443.7190671177777
0003d0 62 c4 34 4c 71 c0 c3 c0 00 00 00 00 00 00 38 40
       -10112.885138126268 24.0
0003e0 5a c8 1f 66 5e 9d 9f c0 a8 01 ae 57 1f 4c c6 c0
       -2023.342186447719 -11416.244863272485
0003f0 00 00 00 00 00 00 35 40 c8 a0 6c 4b be b4 80 c0
       21.0 -534.5929172979895
000400 4a 78 7f 90 9e 97 c1 c0 00 00 00 00 00 00 36 40
       -9007.238784726844 22.0
000410 f7 19 12 a1 e4 88 a2 40 2e 6e b8 d1 45 d2 c2 c0
       2372.446541371984 -9636.545462659644
000420 00 00 00 00 00 00 38 40 fd bb e8 e9 a7 f9 a1 c0
       24.0 -2300.8279564599493
000430 4f 4b ef 58 27 75 c7 c0 00 00 00 00 00 00 35 40
       -12010.307401572963 21.0
000440 e7 68 e2 66 7b d7 80 c0 46 74 33 84 84 7c bf c0
       -538.9352548301948 -8060.517642227065
000450 00 00 00 00 00 00 36 40 b2 7b d6 4e 36 ce a1 40
       22.0 2279.1060702348705
000460 dd be 2e 6a 50 e8 c1 c0 00 00 00 00 00 00 38 40
       -9168.628240435786 24.0
000470 fa 74 7d 85 a1 82 a1 c0 ad 55 2a df e1 49 c8 c0
       -2241.315471573381 -12435.764622966608
000480 00 00 00 00 00 00 35 40 64 36 90 75 85 1b 90 c0
       21.0 -1030.8803312810132
000490 24 47 38 30 0c a3 c5 c0 00 00 00 00 00 00 36 40
       -11078.095221552598 22.0
0004a0 7b 5b 70 e8 2d c8 a4 40 6b 75 58 df 98 2c c4 c0
       2660.089663993041 -10329.194315965016
0004b0 00 00 00 00 00 00 38 40 b0 c0 2c 7d 45 14 a1 c0
       24.0 -2186.1357206330504
0004c0 2c 93 76 1e eb c7 ca c0 00 00 00 00 00 00 35 40
       -13711.836867162572 21.0
0004d0 98 41 1e ff 95 4b 83 c0 5b 83 86 54 62 8e c3 c0
       -617.4482405055778 -10012.768204511774
0004e0 00 00 00 00 00 00 36 40 63 41 8d 5f a8 02 a3 40
       22.0 2433.32885400222
0004f0 f6 2c a7 4d e9 c8 c1 c0 00 00 00 00 00 00 38 40
       -9105.822682282404 24.0
000500 6a f5 68 a5 14 c6 a0 c0 bb 8d 4f e2 f6 fc c6 c0
       -2147.040324478109 -11769.928781456189
000510 00 00 00 00 00 00 35 40 b1 63 36 a0 b2 be 8e c0
       21.0 -983.837219643514
000520 51 dc 3d 65 15 c3 c2 c0 00 00 00 00 00 00 36 40
       -9606.16715214975 22.0
000530 eb a1 33 e8 82 1e a0 40 e8 26 24 06 32 7f c0 c0
       2063.2556778082994 -8446.39081241512
000540 00 00 00 00 00 00 38 40 79 ba e6 50 e6 9d 9f c0
       24.0 -2023.4749179889025
000550 0d a5 18 25 34 f5 c7 c0 00 00 00 00 00 00 35 40
       -12266.407382088271 21.0
000560 7c 5f b1 c4 af 89 88 c0 a5 b9 14 63 52 13 c2 c0
       -785.2108243806138 -9254.643648710868
000570 00 00 00 00 00 00 36 40 03 c0 5c 21 ed c2 a3 40
       22.0 2529.4631451591863
000580 88 d8 83 7e ca a7 c2 c0 00 00 00 00 00 00 38 40
       -9551.58198593209 24.0
000590 34 f5 b7 43 6f b8 9f c0 b0 9b 45 6c cb 1c c7 c0
       -2030.108656763402 -11833.589241696376
0005a0 00 00 00 00 00 00 35 40 f8 b2 8c bb 8d 03 92 c0
       21.0 -1152.8884107574686
0005b0 9f ab a5 42 02 bf c4 c0 00 00 00 00 00 00 36 40
       -10622.017658909606 22.0
0005c0 3d 1d 56 68 7a 8d a3 40 8a fd 76 04 c6 d6 bd c0
       2502.7390772734348 -7638.773505627536
0005d0 00 00 00 00 00 00 38 40 c5 7c dc d9 f5 97 a1 c0
       24.0 -2251.9801777746493
0005e0 0e e6 51 9f 6e 8c c6 c0 00 00 00 00 00 00 35 40
       -11544.864237058002 21.0
0005f0 d4 f1 ff 8d e4 bc 84 c0 f4 0b a2 ff 20 f1 c2 c0
       -663.6115989680934 -9698.257801299893
000600 00 00 00 00 00 00 36 40 7c 99 60 eb de 70 a0 40
       22.0 2104.4353895366057
000610 7d b2 be 29 de 6b c4 c0 00 00 00 00 00 00 38 40
       -10455.735648953583 24.0
000620 d8 77 32 2e 02 c7 a1 c0 9f 49 1c 7c 95 9a c7 c0
       -2275.504258706216 -12085.16785005183
000630 00 00 00 00 00 00 35 40 f0 bc 4c 45 17 02 50 c0
       21.0 -64.03267033094357
000640 da dd 7d e5 b7 d2 c2 c0 00 00 00 00 00 00 36 40
       -9637.43669102986 22.0
000650 a1 fb 75 80 d3 3a a4 40 16 5a 72 bd 3a fd c3 c0
       2589.413089453665 -10234.458906454074
000660 00 00 00 00 00 00 38 40 d1 80 ca 58 31 eb a0 c0
       24.0 -2165.596380546784
000670 f6 e0 97 3e b4 2e ca c0 00 00 00 00 00 00 35 40
       -13405.408160195202 21.0
000680 df 93 00 bb 40 79 8d c0 0c f3 d5 2f 76 9f c2 c0
       -943.156606678498 -9534.923334830928
000690 00 00 00 00 00 00 36 40 32 28 86 88 12 75 a2 40
       22.0 2362.536197845847
0006a0 e8 e4 c6 61 da 68 c1 c0 00 00 00 00 00 00 38 40
       -8913.70610891511 24.0
0006b0 0e 61 0f db f7 70 9d c0 59 df 9e ab 5e ab c7 c0
       -1884.242046585368 -12118.739612444931
0006c0 00 00 00 00 00 00 35 40 b6 ac 06 d3 1c e0 93 c0
       21.0 -1272.0281487505831
0006d0 16 6d fb ef c8 da c3 c0 00 00 00 00 00 00 36 40
       -10165.5698236735 22.0
0006e0 2a 46 08 57 d3 e6 a1 40 2b c0 d2 83 ad c4 c2 c0
       2291.412773378911 -9609.35558542617
0006f0 00 00 00 00 00 00 38 40 ee d9 71 60 03 94 a2 c0
       24.0 -2378.006595189908
000700 e6 74 d1 dc 84 dc ca c0 00 00 00 00 00 00 35 40
       -13753.037988836364 21.0
000710 c0 50 48 2a 02 b3 81 c0 80 8e bd 7e 17 d0 bf c0
       -566.3760572099345 -8144.091777655878
000720 00 00 00 00 00 00 36 40 ec a8 8d 2c d0 1b 9e 40
       22.0 1926.953294957576
000730 d5 e9 89 dd 9e 6a c2 c0 00 00 00 00 00 00 38 40
       -9429.241135825325 24.0
000740 72 4c 9e 58 c1 a6 a0 c0 9c 05 36 12 3d 16 c7 c0
       -2131.377629229385 -11820.47711825632
000750 00 00 00 00 00 00 35 40 90 3c 3d 65 4c ef 84 c0
       21.0 -669.9123024734599
000760 fb a2 08 4b 62 60 c2 c0 00 00 00 00 00 00 36 40
       -9408.767914847927 22.0
000770 20 64 5f 3a 48 bb a2 40 66 31 77 eb 89 b9 c0 c0
       2397.6410703477595 -8563.077498339768
000780 00 00 00 00 00 00 38 40 07 b9 f2 88 54 a1 a0 c0
       24.0 -2128.6651073313583
000790 bf 0b 98 b6 de 6d c8 c0 00 00 00 00 00 00 35 40
       -12507.7399473245 21.0
0007a0 90 40 70 04 b0 60 60 c0 7c 98 a4 a8 3a 27 c1 c0
       -131.02148649143464 -8782.458271574455
0007b0 00 00 00 00 00 00 36 40 79 34 08 be 53 96 a3 40
       22.0 2507.163559204488
0007c0 41 cf 5b 6d c4 e7 c2 c0 00 00 00 00 00 00 38 40
       -9679.534587360571 24.0
0007d0 04 b4 64 68 49 5b a1 c0 0f 56 ca 5b 2d f7 c4 c0
       -2221.64337458322 -10734.35436371996
0007e0 00 00 00 00 00 00 35 40 92 ce 6c fb ae db 87 c0
       21.0 -763.4604404926815
0007f0 9c 2c c1 bd a5 7c c4 c0 00 00 00 00 00 00 36 40
       -10489.294853350431 22.0
