data/input_files/inputparams_800.npy (npy, 7328 bytes, 1 tensors)

array f8 [100, 3, 3]
000000 00 00 00 00 00 00 35 40 bc b1 9b 39 bd 72 84 c0
       21.0 -654.3423950351348
000010 6b 68 9e d3 3b 12 c5 c0 00 00 00 00 00 00 36 40
       -10788.467395592676 22.0
000020 c2 ec 3e eb 8e 23 a3 40 78 3a e5 76 9d 64 c0 c0
       2449.779138533021 -8393.230190900373
000030 00 00 00 00 00 00 38 40 8b d3 27 b2 ab 94 9f c0
       24.0 -2021.167671797072
000040 c9 41 e4 cd 78 cf c5 c0 00 00 00 00 00 00 35 40
       -11166.943783313867 21.0
000050 f7 83 d6 99 ed 7a 81 c0 c7 0e 70 d8 fa ee c3 c0
       -559.3660160788558 -10205.959730155197
000060 00 00 00 00 00 00 36 40 2a 14 cb 50 9c 63 a2 40
       22.0 2353.8053039037814
000070 72 96 d5 06 e6 29 c2 c0 00 00 00 00 00 00 38 40
       -9299.797083567104 24.0
000080 89 51 22 de f2 c1 9e c0 e0 6c 95 2b 4c c8 c7 c0
       -1968.4871754991784 -12176.595080068742
000090 00 00 00 00 00 00 35 40 18 da 30 8f 8f ca 8a c0
       21.0 -857.3200973335797
0000a0 cd 04 41 96 07 ab c4 c0 00 00 00 00 00 00 36 40
       -10582.059272887558 22.0
0000b0 eb b0 be 87 f8 03 a1 40 18 6b a9 7b 6a 9e bd c0
       2177.985410651299 -7582.415949429174
0000c0 00 00 00 00 00 00 38 40 16 5a 55 62 26 ea 9d c0
       24.0 -1914.5374844871744
0000d0 86 e5 77 7d 5f 55 c7 c0 00 00 00 00 00 00 35 40
       -11946.746016490051 21.0
0000e0 87 05 76 9a 4a e5 8c c0 9d a7 0a 32 ef b1 c3 c0
       -924.6614274235188 -10083.86871464905
0000f0 00 00 00 00 00 00 36 40 3e 29 9a d0 0c f9 a2 40
       22.0 2428.5250290084214
000100 5e 56 3a 08 37 14 c2 c0 00 00 00 00 00 00 38 40
       -9256.429938594982 24.0
000110 8f 34 6b 79 bf d0 9c c0 e7 7a 76 22 33 d2 c7 c0
       -1844.1869866133527 -12196.399489221583
000120 00 00 00 00 00 00 35 40 de 74 da 97 f1 dd 8e c0
       21.0 -987.7429654185214
000130 94 b0 22 34 90 b7 c2 c0 00 00 00 00 00 00 36 40
       -9583.126591049404 22.0
000140 d4 5b a1 42 c0 6b a3 40 19 69 8b 01 b9 d8 be c0
       2485.875508348903 -7896.722679818305
000150 00 00 00 00 00 00 38 40 59 24 cc a6 63 c1 a1 c0
       24.0 -2272.6946319383974
000160 6c c7 3a 45 af c9 c5 c0 00 00 00 00 00 00 35 40
       -11155.369300219892 21.0
000170 82 0e 4a dd 02 8c 95 c0 47 e1 76 ae 9e 61 c1 c0
       -1379.002797276626 -8899.239699230193
000180 00 00 00 00 00 00 36 40 7f fd c0 ca 3c 79 a1 40
       22.0 2236.618734389252
000190 21 11 97 44 f5 4a c4 c0 00 00 00 00 00 00 38 40
       -10389.916155703891 24.0
0001a0 c4 32 a3 91 9f cc a2 c0 58 e9 a0 f4 48 46 c7 c0
       -2406.3116580008955 -11916.569965471208
0001b0 00 00 00 00 00 00 35 40 1f c8 85 e5 d3 84 8c c0
       21.0 -912.6034651233384
0001c0 64 21 21 68 63 2c c3 c0 00 00 00 00 00 00 36 40
       -9816.77661527758 22.0
0001d0 2c 1a 27 59 e7 fc a4 40 c4 07 29 21 af f1 c1 c0
       2686.4518520564507 -9187.368199471275
0001e0 00 00 00 00 00 00 38 40 59 68 fd 19 50 c0 a1 c0
       24.0 -2272.1564482869985
0001f0 24 47 55 88 4b 3c c6 c0 00 00 00 00 00 00 35 40
       -11384.590098056542 21.0
000200 36 ac 8e 22 8c fc 8d c0 5d 14 3d c6 46 76 c1 c0
       -959.568425287848 -8940.552924761718
000210 00 00 00 00 00 00 36 40 84 68 18 44 41 b3 a1 40
       22.0 2265.627472651251
000220 1f 75 1a b3 47 40 bd c0 00 00 00 00 00 00 38 40
       -7488.280076650232 24.0
000230 b7 a5 ed e8 26 b6 a1 c0 de 87 60 26 fb a0 c8 c0
       -2267.0759958519734 -12609.962108675329
000240 00 00 00 00 00 00 35 40 5a 1d 21 58 b8 e1 70 c0
       21.0 -270.10750592170155
000250 41 68 4b 09 62 7d c0 c0 00 00 00 00 00 00 36 40
       -8442.765908647447 22.0
000260 db a3 38 2b 05 44 a2 40 8c c0 ed 28 1b d8 c0 c0
       2338.01009537697 -8624.212186545388
000270 00 00 00 00 00 00 38 40 97 d7 0f 38 d4 c7 a0 c0
       24.0 -2147.9144902182265
000280 1e 79 e9 2b 29 f2 c8 c0 00 00 00 00 00 00 35 40
       -12772.321652588023 21.0
000290 0f 3b 86 87 33 e4 87 c0 ad 58 ca 78 9d df c5 c0
       -764.5251608359121 -11199.230248730944
0002a0 00 00 00 00 00 00 36 40 31 11 1c 5b 3e 4e a3 40
       22.0 2471.1217888613687
0002b0 35 06 f6 ce 99 1e c1 c0 00 00 00 00 00 00 38 40
       -8765.20162844947 24.0
0002c0 f9 9e e2 a5 70 a8 a4 c0 e1 96 dc 19 28 bf c5 c0
       -2644.2200156039294 -11134.313289235755
0002d0 00 00 00 00 00 00 35 40 49 22 61 46 7b 93 87 c0
       21.0 -754.4351928318584
0002e0 92 60 5e 1b e7 aa c3 c0 00 00 00 00 00 00 36 40
       -10069.805522725252 22.0
0002f0 a9 ec 19 cd 4e 6d a1 40 f5 3f 10 3d d4 1f c3 c0
       2230.653908548488 -9791.658113509397
000300 00 00 00 00 00 00 38 40 8b 7e f2 4e 15 96 a3 c0
       24.0 -2507.041617944667
000310 d6 87 65 74 53 0c c8 c0 00 00 00 00 00 00 35 40
       -12312.651989642454 21.0
000320 25 7b 58 38 17 b9 81 c0 d7 11 bd e4 09 8c c4 c0
       -567.1363379395085 -10520.077293046676
000330 00 00 00 00 00 00 36 40 e0 b7 c2 25 08 ef a1 40
       22.0 2295.515913090654
000340 17 8c 21 5e 64 b3 be c0 00 00 00 00 00 00 38 40
       -7859.392061325742 24.0
000350 2c 36 78 df 4c 3d a1 c0 f8 9c a7 bf 43 8c c7 c0
       -2206.6501424375656 -12056.529286338468
000360 00 00 00 00 00 00 35 40 02 43 a3 3d 07 c6 88 c0
       21.0 -792.7535355334114
000370 4c 38 42 40 9c 62 c5 c0 00 00 00 00 00 00 36 40
       -10949.220711019028 22.0
000380 94 45 cd 58 67 a4 a3 40 da d3 da 33 ff 4e c2 c0
       2514.201849379295 -9373.99376998276
000390 00 00 00 00 00 00 38 40 f0 04 04 80 87 4c a2 c0
       24.0 -2342.264648557284
0003a0 e6 26 86 b2 98 17 c5 c0 00 00 00 00 00 00 35 40
       -10799.192948121065 21.0
0003b0 0a 51 c2 c2 62 c4 88 c0 da 22 58 d4 eb 00 c1 c0
       -792.548223035906 -8705.842417733209
0003c0 00 00 00 00 00 00 36 40 df 3e 52 99 d6 e9 a2 40
       22.0 2420.919138498473
0003d0 67 4e a2 5d 41 cc c1 c0 00 00 00 00 00 00 38 40
       -9112.51066998318 24.0
0003e0 02 35 bf ce a4 37 a2 c0 72 db 36 6d 0e c0 c7 c0
       -2331.821889853688 -12160.112707955504
0003f0 00 00 00 00 00 00 35 40 87 37 e7 99 97 70 8c c0
       21.0 -910.074024015791
000400 0c f8 4b c7 a6 3c c3 c0 00 00 00 00 00 00 36 40
       -9849.30295705425 22.0
000410 9f a5 aa 17 1b 63 a2 40 14 9b 80 a8 78 40 c2 c0
       2353.55291493675 -9344.942642284128
000420 00 00 00 00 00 00 38 40 1f 8e 75 b1 ed 30 a3 c0
       24.0 -2456.464244531249
000430 32 d5 2f 9a e8 c6 c6 c0 00 00 00 00 00 00 35 40
       -11661.817205409145 21.0
000440 87 03 9d c5 8c df 87 c0 21 71 3b 70 81 d8 c2 c0
       -763.9437362925245 -9649.011237554778
000450 00 00 00 00 00 00 36 40 9f 99 8e ae 82 08 a1 40
       22.0 2180.255238014462
000460 34 54 24 d3 59 46 c1 c0 00 00 00 00 00 00 38 40
       -8844.701756039729 24.0
000470 9c 71 a0 c3 ef f0 a0 c0 79 d7 4c 6a d2 56 c6 c0
       -2168.468289388531 -11437.643869023525
000480 00 00 00 00 00 00 35 40 80 2f 35 d0 80 b7 8d c0
       21.0 -950.9378971247788
000490 12 1f d3 af 62 e4 c2 c0 00 00 00 00 00 00 36 40
       -9672.7709907438 22.0
0004a0 87 f9 2f df 43 5e 9d 40 a3 8b f8 03 d1 d6 c0 c0
       1879.5662810798692 -8621.632933681662
0004b0 00 00 00 00 00 00 38 40 5a e7 a1 89 6b 4e a3 c0
       24.0 -2471.2100344271576
0004c0 a8 0b b1 96 f6 61 c6 c0 00 00 00 00 00 00 35 40
       -11459.92647374219 21.0
0004d0 b7 63 3f a9 d9 0f 85 c0 aa 1d 7c 65 c8 90 c1 c0
       -673.9812798454576 -8993.565597071156
0004e0 00 00 00 00 00 00 36 40 33 99 07 cd c2 7e a3 40
       22.0 2495.38047050233
0004f0 8d 52 ec 85 cf ae c2 c0 00 00 00 00 00 00 38 40
       -9565.621274509724 24.0
000500 78 f8 74 dc 63 6c 9f c0 2b 62 6e 46 8d 9d c9 c0
       -2011.097520663896 -13115.103711889204
000510 00 00 00 00 00 00 35 40 da 96 67 6f a2 91 8c c0
       21.0 -914.2043140499984
000520 22 91 cd 9e 39 e1 c2 c0 00 00 00 00 00 00 36 40
       -9666.45015878283 22.0
000530 a4 d9 58 8a 2d 4f a2 40 c9 49 9f 77 f6 5b bf c0
       2343.5889461293864 -8027.962762790216
000540 00 00 00 00 00 00 38 40 62 19 47 f1 e2 49 9e c0
       24.0 -1938.471623526501
000550 c8 f1 4d 2f c2 63 c9 c0 00 00 00 00 00 00 35 40
       -12999.517068617875 21.0
000560 43 bb 9f d6 de 8b 8b c0 13 1d b9 45 31 0d c2 c0
       -881.4838078001998 -9242.384940280148
000570 00 00 00 00 00 00 36 40 12 38 a2 9d 9e 8a a2 40
       22.0 2373.309796399445
000580 00 0c 59 f5 20 09 c0 c0 00 00 00 00 00 00 38 40
       -8210.257487421855 24.0
000590 5e 80 a8 44 7a 88 a0 c0 5b b2 7e 57 58 7f c5 c0
       -2116.238805070562 -11006.69017013272
0005a0 00 00 00 00 00 00 35 40 db 6b 84 45 94 4a 8b c0
       21.0 -873.3223982186713
0005b0 25 e3 d2 90 2d a8 c0 c0 00 00 00 00 00 00 36 40
       -8528.355982170973 22.0
0005c0 f8 56 0f a1 70 ba a4 40 ca 4b 4e eb 3b ef c1 c0
       2653.219978789679 -9182.468118464476
0005d0 00 00 00 00 00 00 38 40 97 1b a4 fa 54 3b 9f c0
       24.0 -1998.8329873697128
0005e0 e3 05 83 54 f8 72 c8 c0 00 00 00 00 00 00 35 40
       -12517.94007909572 21.0
0005f0 36 89 76 17 53 df 82 c0 53 fc 7a bf c4 68 c2 c0
       -603.9155720959304 -9425.537093518453
000600 00 00 00 00 00 00 36 40 f9 e5 6d 21 9d 3c a1 40
       22.0 2206.306895670245
000610 ce 60 de 3c b2 08 c3 c0 00 00 00 00 00 00 38 40
       -9745.392482564228 24.0
000620 fb c6 4b a1 1b 6a 98 c0 e6 c8 20 6a 7e 01 c8 c0
       -1562.526982482929 -12290.98761377153
000630 00 00 00 00 00 00 35 40 95 ef a8 bf ee 88 8f c0
       21.0 -1009.1165764997592
000640 e9 be 12 a4 1c d9 c1 c0 00 00 00 00 00 00 36 40
       -9138.22375711748 22.0
000650 16 3a dd 18 f8 27 a4 40 f9 af eb ef 66 72 c1 c0
       2579.984564698544 -8932.804196797299
000660 00 00 00 00 00 00 38 40 c8 a0 96 11 b9 4d 9d c0
       24.0 -1875.4307311568864
000670 cb f0 21 5a c6 71 c6 c0 00 00 00 00 00 00 35 40
       -11491.549625628066 21.0
000680 e4 b9 6f 8c 8d 63 82 c0 5a cb e3 54 35 6b c1 c0
       -588.4441155174832 -8918.416653131764
000690 00 00 00 00 00 00 36 40 6d 45 30 79 50 a4 a4 40
       22.0 2642.157174595332
0006a0 ac b1 8d 87 7e 9c bf c0 00 00 00 00 00 00 38 40
       -8092.494255882146 24.0
0006b0 a8 a5 64 fd 90 90 a0 c0 97 f5 ce af ca de c8 c0
       -2120.2831832363336 -12733.583490247647
0006c0 00 00 00 00 00 00 35 40 b4 6b 74 da 00 d2 84 c0
       21.0 -666.2504166694039
0006d0 23 3a 85 41 40 16 c1 c0 00 00 00 00 00 00 36 40
       -8748.501999524486 22.0
0006e0 0c 7f 13 88 1c fa 9d 40 77 97 61 16 6c 97 c2 c0
       1918.5278628393453 -9518.844433020551
0006f0 00 00 00 00 00 00 38 40 dc 8f bb 18 23 37 a1 c0
       24.0 -2203.5685480702505
000700 78 fa 75 c7 0c 34 c6 c0 00 00 00 00 00 00 35 40
       -11368.099837062167 21.0
000710 40 02 3d 86 93 5b 8a c0 f0 fe 7d 4e 4f d5 c2 c0
       -843.4470333830177 -9642.61958289097
000720 00 00 00 00 00 00 36 40 96 46 d0 0e 2c 73 a2 40
       22.0 2361.586050518624
000730 19 b6 82 94 23 d5 c0 c0 00 00 00 00 00 00 38 40
       -8618.277969683566 24.0
000740 ff 50 ec 6e aa bb a2 c0 0d ba 9d ca 6d 94 c8 c0
       -2397.8328775261757 -12584.857745853276
000750 00 00 00 00 00 00 35 40 88 ea 78 26 a2 a1 8a c0
       21.0 -852.2041749426435
000760 d1 35 85 c5 6c c4 c2 c0 00 00 00 00 00 00 36 40
       -9608.849777842786 22.0
000770 3e a9 80 b6 e6 07 a2 40 41 20 89 71 d3 a8 c2 c0
       2307.9506111342043 -9553.65190233302
000780 00 00 00 00 00 00 38 40 d1 89 2d b0 36 56 a0 c0
       24.0 -2091.106812880586
000790 09 13 53 d7 ad 96 c5 c0 00 00 00 00 00 00 35 40
       -11053.358133682532 21.0
0007a0 e0 98 9b 84 f5 71 7c c0 26 22 85 1a b8 be c3 c0
       -455.1224409177794 -10109.438309327768
0007b0 00 00 00 00 00 00 36 40 f4 3d 48 ce c9 89 a2 40
       22.0 2372.894151933253
0007c0 a8 a1 d2 a3 71 50 c1 c0 00 00 00 00 00 00 38 40
       -8864.887811974462 24.0
0007d0 5c 74 00 86 01 1c a0 c0 5c b2 7d 2a 7b 08 cb c0
       -2062.002975477413 -13840.962234222498
0007e0 00 00 00 00 00 00 35 40 2f 6b 65 74 26 66 8b c0
       21.0 -876.7687766955695
0007f0 6a fa 53 c7 13 f2 c2 c0 00 00 00 00 00 00 36 40
       -9700.154520509026 22.0
