data/input_files/inputparams_400.npy (npy, 7328 bytes, 1 tensors)

array f8 [100, 3, 3]
21.0 -589.32018071355 -10625.534511624734 22.0 1888.0686054006949 -8484.551270100716 24.0 -1962.1323819675488
-11752.760433377016 21.0 -778.4872714556122 -9044.213712909796 22.0 2261.582988146516 -8721.318765745684 24.0
-2003.2897672079173 -13650.520703041637 21.0 -1135.6647360636734 -9163.916273767369 22.0 2388.0140564680128 -9783.48672415897
24.0 -2363.125133663076 -11410.218183126426 21.0 -790.4610970571867 -9170.76666638494 22.0 2524.198144092898
-8917.978117018825 24.0 -2021.4044389970225 -11304.751011844372 21.0 -890.6059764529459 -8489.66111779337 22.0
2026.4447492311035 -9321.52023624935 24.0 -2005.6567935525864 -11248.562232056334 21.0 -804.6552026118076 -10441.805866077915
22.0 2503.4637057053405 -8465.690186644924 24.0 -2355.8662358876727 -10881.180190820123 21.0 -801.6116433840734
-10514.06990566614 22.0 2402.132494898388 -9462.680206557156 24.0 -2159.686360542747 -11230.457218143192 21.0
-800.3182168153847 -9771.112612520154 22.0 2531.6797999816763 -8065.114756990963 24.0 -1956.429069928588 -13864.015197937437
21.0 -640.5990238957415 -8131.741373837915 22.0 2335.744703312803 -9791.50106040212 24.0 -2148.9047429267453
-10763.392419925503 21.0 -693.0277313667125 -8436.44051937159 22.0 2419.848719487257 -8807.049870680643 24.0
-2419.1074690614946 -11990.911449962496 21.0 -1023.1779402402508 -8946.973568019 22.0 2128.654648522131 -9297.53095044916
24.0 -2015.36659083582 -12185.58373404686 21.0 -770.4487423561416 -8396.703007216875 22.0 2552.1501702704163
-9556.134325254096 24.0 -2253.113107953985 -13073.021793008991 21.0 -799.4366557889773 -10093.785224129651 22.0
2473.2575796697006 -8617.744027295234 24.0 -2646.020690926084 -11030.208799411485 21.0 -524.6020215693115 -9672.242680503105
22.0 2540.4721992458435 -8910.209833785619 24.0 -1975.6737812179904 -11295.5300542792 21.0 -957.2244028519328
-9286.129459929156 22.0 2218.439526548936 -10788.716106961412 24.0 -2508.4999181981893 -10992.305346599347 21.0
-1195.8533568933751 -9907.732475621038 22.0 2023.115663939935 -10142.322119420462 24.0 -2407.091023658823 -12495.832230813692
21.0 -832.1597999297063 -9817.206175939871 22.0 2180.737976441956 -10064.964683702708 24.0 -1966.8690683994312
-11547.718838945428 21.0 -767.8905583274665 -9687.714938821597 22.0 2307.252231074465 -8695.992356882003 24.0
-2374.1487989958414 -11288.867168289877 21.0 -838.3274697546343 -10213.072535508134 22.0 2329.148803606504 -9311.143265848445
24.0 -2020.0685001068907 -12322.649410187243 21.0 -875.7290829015782 -9548.49244306472 22.0 2489.7410739850056
-10961.5476993943 24.0 -1988.89782973408 -11807.046711454595 21.0 -641.5447169055062 -8093.977539453233 22.0
2345.839553922902 -9330.6493060033 24.0 -1788.0491842482088 -13097.98046495276 21.0 -1082.5932058383296 -8630.589153005332
22.0 2452.238660638556 -10157.661493329826 24.0 -2586.9918739523505 -12545.558323276067 21.0 -918.7429712900848
-9048.690586915576 22.0 2320.378673959824 -11241.928235532836 24.0 -1850.9790270699043 -10040.013021346766 21.0
-747.990034596087 -9909.139636152368 22.0 2279.020455433326 -8745.916134963729 24.0 -1882.432832350876 -10521.58076241635
21.0 -740.3077445917696 -9938.435520851088 22.0 2048.527050905397 -9443.299666624996 24.0 -2545.413845940715
-11991.15490685946 21.0 -425.1806719010459 -9682.345828178855 22.0 2533.629134054808 -10150.019227600716 24.0
-2444.7921229222666 -11748.79820848862 21.0 -861.8738950602343 -11308.639396576262 22.0 2325.978544732673 -8792.308486396665
24.0 -2271.9917072651106 -13002.939857119827 21.0 -696.8202811734354 -10205.449059532564 22.0 2238.67572274767
-9881.5712705249 24.0 -2112.9397529177304 -11599.51683223504 21.0 -835.9862492771745 -9759.505623619045 22.0
00000000: 0000 0000 0000 3540 0fec e7ba 8f6a 82c0
00000010: c87d e06a c4c0 c4c0 0000 0000 0000 3640
00000020: 4181 7e40 4680 9d40 ebc6 0490 4692 c0c0
00000030: 0000 0000 0000 3840 cf74 238f 87a8 9ec0
00000040: 8982 e155 61f4 c6c0 0000 0000 0000 3540
00000050: 08b1 93ee e553 88c0 27d3 f15a 1baa c1c0
00000060: 0000 0000 0000 3640 7c1e 6c7d 2aab a140
00000070: 66e2 50cd a808 c1c0 0000 0000 0000 3840
00000080: d525 bcb8 284d 9fc0 61b3 65a6 42a9 cac0
00000090: 0000 0000 0000 3540 cc17 92b0 a8be 91c0
000000a0: 8474 7548 f5e5 c1c0 0000 0000 0000 3640
000000b0: d3cc 6832 07a8 a240 7a2c fa4c be1b c3c0
000000c0: 0000 0000 0000 3840 15fd 8411 4076 a2c0
000000d0: 45b8 6ced 1b49 c6c0 0000 0000 0000 3540
000000e0: 3167 a753 b0b3 88c0 21c5 1f22 62e9 c1c0
000000f0: 0000 0000 0000 3640 c97d 2473 65b8 a340
00000100: c23f f032 fd6a c1c0 0000 0000 0000 3840
00000110: c1a5 4125 9e95 9fc0 3ef7 2721 6014 c6c0
00000120: 0000 0000 0000 3540 64bc 2e0a d9d4 8bc0
00000130: aa02 829f d494 c0c0 0000 0000 0000 3640
00000140: 0baa 576c c7a9 9f40 93f6 1997 c234 c2c0
00000150: 0000 0000 0000 3840 5432 7d8e a056 9fc0
00000160: 5c53 38f7 47f8 c5c0 0000 0000 0000 3540
00000170: bdef ddda 3d25 89c0 cda0 9e26 e764 c4c0
00000180: 0000 0000 0000 3640 d08e d56a ed8e a340
00000190: 0b36 0958 d888 c0c0 0000 0000 0000 3840
000001a0: 5a30 4583 bb67 a2c0 bc27 7e10 9740 c5c0
000001b0: 0000 0000 0000 3540 485b 49a5 e40c 89c0
000001c0: f03a abf2 0889 c4c0 0000 0000 0000 3640
000001d0: ed0e 5fd6 43c4 a240 c12a 0211 577b c2c0
000001e0: 0000 0000 0000 3840 ba28 a66a 5fdf a0c0
000001f0: 13c6 1f86 3aef c5c0 0000 0000 0000 3540
00000200: ebf8 41b5 8b02 89c0 9749 166a 8e15 c3c0
00000210: 0000 0000 0000 3640 3e42 be0e 5cc7 a340
00000220: 2cd3 b660 1d81 bfc0 0000 0000 0000 3840
00000230: ee7b 1b5e b791 9ec0 218a 01f2 0114 cbc0
00000240: 0000 0000 0000 3540 dc4d 0acd ca04 84c0
00000250: f403 adca bdc3 bfc0 0000 0000 0000 3640
00000260: 6cab c049 7d3f a240 374c bf22 c01f c3c0
00000270: 0000 0000 0000 3840 5103 773a cfc9 a0c0
00000280: 2bed d03a b205 c5c0 0000 0000 0000 3540
00000290: d408 39cb 38a8 85c0 1e53 f062 387a c0c0
000002a0: 0000 0000 0000 3640 7e52 5c8b b2e7 a240
000002b0: 3297 2962 8633 c1c0 0000 0000 0000 3840
000002c0: e750 2f06 37e6 a2c0 6e72 64aa 746b c7c0
000002d0: 0000 0000 0000 3540 28c4 ee6b 6cf9 8fc0
000002e0: 0579 e09d 7c79 c1c0 0000 0000 0000 3640
000002f0: db51 172e 4fa1 a040 782f 2ff6 c328 c2c0
00000300: 0000 0000 0000 3840 718b 9663 777d 9fc0
00000310: 6a18 ccb7 cacc c7c0 0000 0000 0000 3540
00000320: aa7f 3b06 9713 88c0 aaf6 23fc 5966 c0c0
00000330: 0000 0000 0000 3640 8a20 1ee3 4cf0 a340
00000340: afe6 9131 11aa c2c0 0000 0000 0000 3840
00000350: 9126 49e9 399a a1c0 7302 1dca 8288 c9c0
00000360: 0000 0000 0000 3540 22ea 6345 7efb 88c0
00000370: 716a 3982 e4b6 c3c0 0000 0000 0000 3640
00000380: f582 7be1 8352 a340 2e52 493c dfd4 c0c0
00000390: 0000 0000 0000 3840 b645 0098 0aac a4c0
000003a0: e069 f0b9 1a8b c5c0 0000 0000 0000 3540
000003b0: 703d aff0 d064 80c0 1b9c 2710 1fe4 c2c0
000003c0: 0000 0000 0000 3640 307c 19c4 f1d8 a340
000003d0: 6a5f d5db 1a67 c1c0 0000 0000 0000 3840
000003e0: b61f b4f3 b1de 9ec0 2291 d1d8 c30f c6c0
000003f0: 0000 0000 0000 3540 72f1 b893 cbe9 8dc0
00000400: ef98 2492 1023 c2c0 0000 0000 0000 3640
00000410: cfb2 9f09 e154 a140 da95 64a9 5b12 c5c0
00000420: 0000 0000 0000 3840 cc2f 47f5 ff98 a3c0
00000430: 12ed 9815 2778 c5c0 0000 0000 0000 3540
00000440: 73b3 63d6 69af 92c0 bdda c2c1 dd59 c3c0
00000450: 0000 0000 0000 3640 649d 9b70 769c 9f40
00000460: 258c 353b 29cf c3c0 0000 0000 0000 3840
00000470: 9d2b a79a 2ece a2c0 c40f 8a86 ea67 c8c0
00000480: 0000 0000 0000 3540 ef7f 2f45 4701 8ac0
00000490: 7c23 f963 9a2c c3c0 0000 0000 0000 3640
000004a0: d756 0cd8 7909 a140 0f6d c17a 7ba8 c3c0
000004b0: 0000 0000 0000 3840 2d06 11ed 79bb 9ec0
000004c0: da20 ea02 dc8d c6c0 0000 0000 0000 3540
000004d0: 315d 0bdd 1fff 87c0 b384 1d83 dbeb c2c0
000004e0: 0000 0000 0000 3640 b96f 6e24 8106 a240
000004f0: 15e1 8c05 fffb c0c0 0000 0000 0000 3840
00000500: a2c9 612f 4c8c a2c0 93da 5eff 6e0c c6c0
00000510: 0000 0000 0000 3540 ab74 76a8 9e32 8ac0
00000520: 9ef1 d748 89f2 c3c0 0000 0000 0000 3640
00000530: ec7e fc2f 4c32 a240 da0a 8956 922f c2c0
00000540: 0000 0000 0000 3840 795b e424 4690 9fc0
00000550: f37d df1f 5311 c8c0 0000 0000 0000 3540
00000560: cf92 6a29 d55d 8bc0 0fd5 5f08 3fa6 c2c0
00000570: 0000 0000 0000 3640 08a3 0c6e 7b73 a340
00000580: 4785 031b c668 c5c0 0000 0000 0000 3840
00000590: 0085 ad60 9713 9fc0 eb14 a4fa 850f c7c0
000005a0: 0000 0000 0000 3540 d275 8994 5b0c 84c0
000005b0: 2f8e 0640 fa9d bfc0 0000 0000 0000 3640
000005c0: 2f04 03da ad53 a240 a388 751c 5339 c2c0
000005d0: 0000 0000 0000 3840 2406 5b5d 32f0 9bc0
000005e0: 7d25 e07f fd94 c9c0 0000 0000 0000 3540
000005f0: b0ed 5971 5fea 90c0 1f9d 5d69 4bdb c0c0
00000600: 0000 0000 0000 3640 e22a ba31 7a28 a340
00000610: 103d d0ab d4d6 c3c0 0000 0000 0000 3840
00000620: 3316 e7d6 fb35 a4c0 a719 2377 c780 c8c0
00000630: 0000 0000 0000 3540 4086 ee9a f1b5 8cc0
00000640: b9ec 2665 58ac c1c0 0000 0000 0000 3640
00000650: 95a2 8de1 c120 a240 4204 6cd0 f6f4 c5c0
00000660: 0000 0000 0000 3840 8d7c 1286 eaeb 9cc0
00000670: 41f9 aeaa 019c c3c0 0000 0000 0000 3540
00000680: d120 4297 eb5f 87c0 e1f1 98df 915a c3c0
00000690: 0000 0000 0000 3640 5272 2279 0ace a140
000006a0: f815 e943 f514 c1c0 0000 0000 0000 3840
000006b0: a75e 6738 bb69 9dc0 7c40 6c56 ca8c c4c0
000006c0: 0000 0000 0000 3540 5fe9 cb42 7622 87c0
000006d0: 13b2 25bf 3769 c3c0 0000 0000 0000 3640
000006e0: 04c4 9dd9 0d01 a040 08d9 795b a671 c2c0
000006f0: 0000 0000 0000 3840 e879 9de3 d3e2 a3c0
00000700: a7eb fcd3 936b c7c0 0000 0000 0000 3540
00000710: c624 3808 e492 7ac0 1c07 1944 2ce9 c2c0
00000720: 0000 0000 0000 3640 67dc db1d 42cb a340
00000730: 21ce 0c76 02d3 c3c0 0000 0000 0000 3840
00000740: 18bb 2291 9519 a3c0 021d b22b 66f2 c6c0
00000750: 0000 0000 0000 3540 bd7e b1bc fdee 8ac0
00000760: 1c3c bfd7 5116 c6c0 0000 0000 0000 3640
00000770: 02b1 d003 f52b a240 7874 7b7c 272c c1c0
00000780: 0000 0000 0000 3840 b6fd 0dc1 fbbf a1c0
00000790: 49f4 3c4d 7865 c9c0 0000 0000 0000 3540
000007a0: 706b 93ef 8fc6 85c0 2963 c87a b9ee c3c0
000007b0: 0000 0000 0000 3640 d0fc 54f8 597d a140
000007c0: cf7e 641f c94c c3c0 0000 0000 0000 3840
000007d0: f25f 4b27 e181 a0c0 8205 8f27 c2a7 c6c0
000007e0: 0000 0000 0000 3540 5839 a9d6 e31f 8ac0
000007f0: f155 46b8 c00f c3c0 0000 0000 0000 3640
