data/input_files/rej_inputparams_2400.npy (npy, 14528 bytes, 1 tensors)

array f8 [200, 3, 3]
0	0x4035000000000000	21.0
1	0xc073ffcb3b1b5407	-319.98711691546526
2	0xc0c14a510b0ac03a	-8852.633149474965
3	0x4036000000000000	22.0
4	0x40a5d544344f35c8	2794.63321158916
5	0xc0c13cff3455a2f0	-8825.993784622726
6	0x4038000000000000	24.0
7	0xc09a924afc0ff5b2	-1700.5732271665297
8	0xc0c54da48b9f34a3	-10907.285510922147
9	0x4035000000000000	21.0
10	0xc08dddaa9e5e6a66	-955.7083098770352
11	0xc0be7bcfce0cdd23	-7803.81173782729
12	0x4036000000000000	22.0
13	0x40a1ae9ffb670026	2263.312464922684
14	0xc0c27a39345c5516	-9460.446910420938
15	0x4038000000000000	24.0
16	0xc09a3ead1b7c84ef	-1679.669050164808
17	0xc0c6b158564397be	-11618.690132569402
18	0x4035000000000000	21.0
19	0xc080e1f6e2bcc8c8	-540.2455496548437
20	0xc0bf8f14bee4c819	-8079.08103780637
21	0x4036000000000000	22.0
22	0x40a249cade979e64	2340.8962294941757
23	0xc0c163e4bef69e59	-8903.787077739065
24	0x4038000000000000	24.0
25	0xc0a06d46f5b1fa6e	-2102.638593255825
26	0xc0c73415c551f965	-11880.170084234976
27	0x4035000000000000	21.0
28	0xc0970ae6609b531c	-1474.724977900455
29	0xc0c0e186e8d54fd6	-8643.05398050688
30	0x4036000000000000	22.0
31	0x40a30476e801036d	2434.2322387997324
32	0xc0c37998e4743305	-9971.194471859848
33	0x4038000000000000	24.0
34	0xc098455812ff7da8	-1553.336009971661
35	0xc0c66896eb80c78d	-11473.179061982572
36	0x4035000000000000	21.0
37	0xc0928c17fa61bbfd	-1187.0234160681714
38	0xc0c1f55415522e80	-9194.656900665956
39	0x4036000000000000	22.0
40	0x40a30a5ad2f369cb	2437.177390677132
41	0xc0c12e660170b787	-8796.79691895448
42	0x4038000000000000	24.0
43	0xc0a153e6166c3a92	-2217.949389822149
44	0xc0c7be1af38c9414	-12156.21055752974
45	0x4035000000000000	21.0
46	0xc0919a68aabfe857	-1126.602213858181
47	0xc0c153703bb11b33	-8870.87682164982
48	0x4036000000000000	22.0
49	0x40a4683f902e55b9	2612.1241468886988
50	0xc0c06a28e6e4a19f	-8404.319546297947
51	0x4038000000000000	24.0
52	0xc0997845fdd71be7	-1630.068351136282
53	0xc0c74db7841f10a4	-11931.43371952355
54	0x4035000000000000	21.0
55	0xc0781ce23dc181b8	-385.805234676252
56	0xc0c3c0a089dc93cf	-10113.254207203076
57	0x4036000000000000	22.0
58	0x40a5c67b4635214d	2787.240770016017
59	0xc0bfd9e203520389	-8153.882863164771
60	0x4038000000000000	24.0
61	0xc0a1badca4f6aced	-2269.4309460722056
62	0xc0c5aabe376ef28a	-11093.48606669276
63	0x4035000000000000	21.0
64	0xc0956345a6f43002	-1368.8180196909238
65	0xc0c4e239a0e611ec	-10692.450222738982
66	0x4036000000000000	22.0
67	0x40a1a6d46daed5f9	2259.4148993145177
68	0xc0c09221ca1cd91e	-8484.263980489744
69	0x4038000000000000	24.0
70	0xc096d7fb504e4abf	-1461.9954235299226
71	0xc0c8b30a00407105	-12646.078132682023
72	0x4035000000000000	21.0
73	0xc090b9b322124e16	-1070.4249346599731
74	0xc0c1710de51b8633	-8930.108554306533
75	0x4036000000000000	22.0
76	0x40a23dab8d0277d1	2334.835060193182
77	0xc0c14aee9e47d6c2	-8853.864205341208
78	0x4038000000000000	24.0
79	0xc0992424e1de141e	-1609.0360178661135
80	0xc0c83f8ebd3105c0	-12415.115148666198
81	0x4035000000000000	21.0
82	0xc08f27cb13c7964c	-996.9741588204138
83	0xc0c13497588cb67e	-8809.182389821155
84	0x4036000000000000	22.0
85	0x409f2dd283872d24	1995.455579864626
86	0xc0c3ded966a34449	-10173.69844475588
87	0x4038000000000000	24.0
88	0xc0995e90586c3acb	-1623.640962306107
89	0xc0c7a2fd0c07ccbb	-12101.976929640738
90	0x4035000000000000	21.0
91	0xc092b5a30c5604a1	-1197.4092267456365
92	0xc0c26f8c1753fdca	-9439.094461916848
93	0x4036000000000000	22.0
94	0x40a433ed5ef9e464	2585.9636152354524
95	0xc0bcf01219e1fab3	-7408.070707439142
96	0x4038000000000000	24.0
97	0xc0a00df1bea8b5e0	-2054.972157737924
98	0xc0c8e54539f35e39	-12746.540831013686
99	0x4035000000000000	21.0
100	0xc085c0c72854cd4d	-696.0972448945191
101	0xc0c09f18c2b4f98f	-8510.193441984038
102	0x4036000000000000	22.0
103	0x40a14055ec674212	2208.16781923944
104	0xc0c0c34001521d3e	-8582.500040306357
105	0x4038000000000000	24.0
106	0xc09c4715b64da4f2	-1809.7712032443928
107	0xc0c6c7b11cfcb491	-11663.383697117011
108	0x4035000000000000	21.0
109	0xc08399d4382bb17c	-627.2286227620639
110	0xc0c22d34786ab3b2	-9306.409924829237
111	0x4036000000000000	22.0
112	0x409c4eb2511d5cc8	1811.6741375530128
113	0xc0c2a3ffcc082c3d	-9543.998414060212
114	0x4038000000000000	24.0
115	0xc09e51e45204386f	-1940.4729691180653
116	0xc0c83ddfd3a5e1fc	-12411.74864648375
117	0x4035000000000000	21.0
118	0xc0926d083a51719b	-1179.2580349660482
119	0xc0c05aaedecab162	-8373.36617406522
120	0x4036000000000000	22.0
121	0x40a165d4008ddc44	2226.9140667277698
122	0xc0c1de28e868669e	-9148.319592523676
123	0x4038000000000000	24.0
124	0xc099672cb4c73f2c	-1625.793658364516
125	0xc0c5cda5d30b234a	-11163.29550303672
126	0x4035000000000000	21.0
127	0xc090d030bc787ad2	-1076.0475939583744
128	0xc0c1d68a49881d96	-9133.080369009444
129	0x4036000000000000	22.0
130	0x40a5d11a654a58be	2792.5515540345505
131	0xc0c171de339112e0	-8931.73594869062
132	0x4038000000000000	24.0
133	0xc09f3af532bc5c57	-1998.7394513541565
134	0xc0c73863447aec46	-11888.77552734887
135	0x4035000000000000	21.0
136	0xc09335617dfb8ba7	-1229.3452071479785
137	0xc0bdc1c0648f07e7	-7617.75153440421
138	0x4036000000000000	22.0
139	0x40a4abb9f8023a2f	2645.863220281222
140	0xc0bed6bd2d0e126b	-7894.738968734261
141	0x4038000000000000	24.0
142	0xc0a1eebe1a556e2c	-2295.371294660281
143	0xc0c7e8898dcb053a	-12241.074639680435
144	0x4035000000000000	21.0
145	0xc07d32cc8efc77f0	-467.1749410497714
146	0xc0c0869a51d724fd	-8461.20562257105
147	0x4036000000000000	22.0
148	0x40a2741b2e663c9f	2362.0530883740425
149	0xc0c2de4f7a9ab63d	-9660.620929087623
150	0x4038000000000000	24.0
151	0xc09d87a9a6b337ed	-1889.9156749728093
152	0xc0c99e75fef98791	-13116.921843711085
153	0x4035000000000000	21.0
154	0xc08bcba5e3b7ab1a	-889.4560007428256
155	0xc0c2824fd6389bff	-9476.62372501008
156	0x4036000000000000	22.0
157	0x40a310623eb44695	2440.191884645096
158	0xc0c1434421ab54b5	-8838.532277504311
159	0x4038000000000000	24.0
160	0xc09c1bcf670d54dd	-1798.9525415499731
161	0xc0c77f4bbaa008a6	-12030.591632847045
162	0x4035000000000000	21.0
163	0xc06b3bfc90a7da60	-217.8745806959514
164	0xc0c301335b27e8d8	-9730.401219357198
165	0x4036000000000000	22.0
166	0x40a5a6d4805ca60e	2771.415041823645
167	0xc0c15894a03ae83e	-8881.161139834785
168	0x4038000000000000	24.0
169	0xc0a2637f0615f80e	-2353.7480933060933
170	0xc0c9344b33369ee2	-12904.587500407772
171	0x4035000000000000	21.0
172	0xc086f2a4e74ec03b	-734.3305193092741
173	0xc0c161c5d40bda67	-8899.545533639566
174	0x4036000000000000	22.0
175	0x40a30cb9bd783e50	2438.362773664099
176	0xc0c1defe8c54dcb8	-9149.988657577298
177	0x4038000000000000	24.0
178	0xc0978b54c60ad861	-1506.8327867216651
179	0xc0cb01eef252d99a	-13827.866770130397
180	0x4035000000000000	21.0
181	0xc090c1629ea93650	-1072.3463083686256
182	0xc0c0cd4d60a90a2d	-8602.604512338608
183	0x4036000000000000	22.0
184	0x40a26a8a3da85808	2357.2700016601048
185	0xc0c47897aee6f738	-10481.18502509185
186	0x4038000000000000	24.0
187	0xc09d3b2f3aa044f4	-1870.7961220781408
188	0xc0c9227a7e511080	-12868.95697987848
189	0x4035000000000000	21.0
190	0xc099be8b3c158c69	-1647.6359713904333
191	0xc0c1027622f58ac2	-8708.922941868546
192	0x4036000000000000	22.0
193	0x409f9bf998ad2cb7	2022.993746476988
194	0xc0c11da5f6ebbdaf	-8763.29659792673
195	0x4038000000000000	24.0
196	0xc0a03ff7a86975d5	-2079.9837067562426
197	0xc0c73fe513f4cbc6	-11903.78967151594
198	0x4035000000000000	21.0
199	0xc0877cd22d0e37af	-751.6026249991172
200	0xc0c2adb0036bf23a	-9563.375104420924
201	0x4036000000000000	22.0
202	0x40a22f46c155d94a	2327.6381937816377
203	0xc0bf32106d72b490	-7986.064170044978
204	0x4038000000000000	24.0
205	0xc09d18bd563b61e7	-1862.184899261332
206	0xc0c6300c24f65288	-11360.09487799673
207	0x4035000000000000	21.0
208	0xc088bcf14af63a0a	-791.6178187595808
209	0xc0c0b93997d83085	-8562.449946426097
210	0x4036000000000000	22.0
211	0x40a7d8233d2fcc43	3052.0688261925548
212	0xc0bfe3a53a9361bf	-8163.645425044407
213	0x4038000000000000	24.0
214	0xc0a1e59ccceb30b1	-2290.8062509056986
215	0xc0c8791c0fdcbc1a	-12530.219234077307
216	0x4035000000000000	21.0
217	0xc0910edf5828c614	-1091.7181097384355
218	0xc0be0b0084f142bf	-7691.002028540416
219	0x4036000000000000	22.0
220	0x40a4ad75226ea7b2	2646.728778322192
221	0xc0c28aa10adb5b75	-9493.258143825204
222	0x4038000000000000	24.0
223	0xc0a1bbc3f9b2a5e5	-2269.8827644183643
224	0xc0c884ad712b0149	-12553.355016112926
225	0x4035000000000000	21.0
226	0xc0393e0f76f7eda0	-25.24242347290931
227	0xc0c1a551054c963d	-9034.632974217757
228	0x4036000000000000	22.0
229	0x40a224cee3aef5fa	2322.404080836798
230	0xc0c236b801282d95	-9325.437535307175
231	0x4038000000000000	24.0
232	0xc0a11b7ae1f87030	-2189.740005267806
233	0xc0c71b368103166e	-11830.42581213565
234	0x4035000000000000	21.0
235	0xc08fe216b5b9c8f9	-1020.261088801809
236	0xc0c170144a7f32ba	-8928.158523463982
237	0x4036000000000000	22.0
238	0x40a3f0c905a43dfe	2552.3926211667704
239	0xc0c1d6515fb9f9d4	-9132.635733839976
240	0x4038000000000000	24.0
241	0xc099eab9a2003c23	-1658.6812820469574
242	0xc0c706ca209d06c3	-11789.579120281507
243	0x4035000000000000	21.0
244	0xc095a451f0223afd	-1385.0800175999168
245	0xc0c303036c7eb735	-9734.02674850412
246	0x4036000000000000	22.0
247	0x40a0f0ede84306fc	2168.4646626421
248	0xc0bd049ad3b35ef4	-7428.604792795832
249	0x4038000000000000	24.0
250	0xc0a04c1df3621309	-2086.0584974907147
251	0xc0c677e00804596b	-11503.7502446591
252	0x4035000000000000	21.0
253	0xc094bae2a3056dd9	-1326.721325001554
254	0xc0c2426063fb204a	-9348.753051176802
255	0x4036000000000000	22.0
