data/input_files/rej_inputparams_3000.npy (npy, 6464 bytes, 1 tensors)

array f8 [88, 3, 3]
21.0 -353.3597281390976 -7820.189498129758 22.0 1991.6559087989028 -9595.878311295672 24.0 -1918.9386556699424
-11733.4109137879 21.0 -1205.7050831832314 -10061.620041031838 22.0 2397.9357016741424 -9318.523886474011 24.0
-1971.1775345832775 -12431.524584743243 21.0 -726.4447141416032 -8348.338103320966 22.0 2467.58271496716 -9360.243924105049
24.0 -2500.7473168302145 -11732.450747029328 21.0 -889.9965617968373 -10081.701800090425 22.0 2354.698048494016
-7754.208749648815 24.0 -2051.9780085921534 -12677.721415422797 21.0 -991.7818319431308 -7373.444904338799 22.0
2834.856535290255 -9143.49435556457 24.0 -2001.3495475969871 -12280.48373545487 21.0 -651.1703774087887 -8615.453159633038
22.0 2945.913232576469 -9971.598582681156 24.0 -2454.090986433857 -12301.042897738684 21.0 -639.6898460739662
-9339.000579970989 22.0 2243.9874220686165 -8602.801756608389 24.0 -1916.257027202028 -10281.606645554628 21.0
-208.49419784688007 -11190.50294564578 22.0 2024.5641374313896 -9627.383140011803 24.0 -2456.44504803756 -12000.703318779117
21.0 -1025.2945428858354 -9831.56367570689 22.0 2367.123125021961 -9114.272933694723 24.0 -1870.92445324352
-11787.871447891366 21.0 -178.57071630214 -10783.31123699462 22.0 1999.139288751995 -9216.954051577375 24.0
-2436.4848354321493 -12751.002059178283 21.0 -560.6307154765818 -10262.318875365514 22.0 2435.465941941062 -10132.815528805915
24.0 -1883.701844993078 -12253.142298965642 21.0 -821.3138533277069 -9745.020074884267 22.0 2311.273262875125
-8280.092155942217 24.0 -2135.807926415325 -11611.652952276394 21.0 -688.4408079147042 -9309.411376162005 22.0
2112.8293448477266 -8506.39792876332 24.0 -2277.9939790020608 -12497.929721702598 21.0 -920.8643044732488 -7742.8255793743965
22.0 2395.8002815361147 -9469.44266962598 24.0 -2124.3506976094586 -12160.724685407611 21.0 -856.4656470817002
-8490.253497936348 22.0 2175.7837455663457 -7248.386733723199 24.0 -2645.7212728537525 -10997.851920642264 21.0
-1225.9208241576928 -9566.564765350147 22.0 2528.7922498981725 -8999.364058768235 24.0 -1818.9712583094392 -13205.51934764281
21.0 -562.3736090385927 -9371.570330236513 22.0 2480.9000585358635 -8296.407409636155 24.0 -1912.6507209733884
-12039.440391712193 21.0 -606.6085464031119 -8645.34043946355 22.0 2661.908135261367 -10028.85488425709 24.0
-2591.9469313147924 -14055.67623615116 21.0 -926.7158923298236 -7997.854173416243 22.0 2492.105250470228 -10068.814177183996
24.0 -2363.7902837382944 -10917.79031024989 21.0 -877.0725336912202 -9450.51915253373 22.0 2699.5779996542374
-8791.40360384273 24.0 -1349.9974727355386 -13282.094138442166 21.0 -848.7909013241057 -8628.555994991251 22.0
2569.3412292988446 -9065.139243366986 24.0 -1413.8103703554543 -10918.80400232348 21.0 -616.6047494763411 -9475.514539805665
22.0 2608.8453889012903 -9819.302278454796 24.0 -2285.243340808935 -11624.048216872508 21.0 -933.618693372038
-8688.502561300527 22.0 2443.625502550963 -9708.754448791997 24.0 -2688.740540876945 -10993.69715217284 21.0
-36.39062695743962 -8406.550438922717 22.0 2583.6904225858943 -8865.67351300923 24.0 -1837.239150418481 -13817.421163304289
21.0 -383.98390131030334 -9992.94004089729 22.0 2217.5585947632067 -9630.944616522544 24.0 -1446.1430283196205
-12802.495507551754 21.0 -1322.9742934728538 -8260.685593183867 22.0 2439.391859385413 -9445.229097248188 24.0
-1808.1270389555264 -12306.42968678008 21.0 -485.7580941362825 -8970.55776618304 22.0 1621.7564914819432 -8929.894536847572
24.0 -2268.3867855748326 -12193.096005022388 21.0 -1217.9217485319773 -9388.319276005828 22.0 1911.946718393136
-8064.549824524388 24.0 -2084.866111733186 -12706.139608583067 21.0 -787.29947216696 -7482.009732375151 22.0
00000000: 0000 0000 0000 3540 010e 4b72 c115 76c0
00000010: f70d f382 308c bec0 0000 0000 0000 3640
00000020: c961 8ea6 9f1e 9f40 4f29 816c f0bd c2c0
00000030: 0000 0000 0000 3840 6eb2 f32e c1fb 9dc0
00000040: 41b0 d298 b4ea c6c0 0000 0000 0000 3540
00000050: c173 5301 d2d6 92c0 f628 815d cfa6 c3c0
00000060: 0000 0000 0000 3640 8232 4a14 dfbb a240
00000070: 5944 b60e 4333 c2c0 0000 0000 0000 3840
00000080: 5834 a0cb b5cc 9ec0 1bc6 9725 c347 c8c0
00000090: 0000 0000 0000 3540 09b2 49c6 8eb3 86c0
000000a0: 1c39 f846 2b4e c0c0 0000 0000 0000 3640
000000b0: afbd 9d59 2a47 a340 f2b2 e738 1f48 c2c0
000000c0: 0000 0000 0000 3840 0bc3 4fa0 7e89 a3c0
000000d0: de22 14b2 39ea c6c0 0000 0000 0000 3540
000000e0: e02e 64f5 f8cf 8bc0 5ada 95d4 d9b0 c3c0
000000f0: 0000 0000 0000 3640 a4b9 9c66 6565 a240
00000100: b6f2 9d70 354a bec0 0000 0000 0000 3840
00000110: 03cd 8abd f407 a0c0 df2f 5757 dcc2 c8c0
00000120: 0000 0000 0000 3540 b815 1b31 41fe 8ec0
00000130: fd30 40e5 71cd bcc0 0000 0000 0000 3640
00000140: 0827 cb8b b625 a640 360b 0b47 bfdb c1c0
00000150: 0000 0000 0000 3840 d225 ceef 6545 9fc0
00000160: 4b1b 0beb 3dfc c7c0 0000 0000 0000 3540
00000170: ccb5 d4ee 5c59 84c0 e285 2201 bad3 c0c0
00000180: 0000 0000 0000 3640 2763 3893 d303 a740
00000190: c277 5b9e cc79 c3c0 0000 0000 0000 3840
000001a0: 971b c695 2e2c a3c0 5c50 ac7d 8506 c8c0
000001b0: 0000 0000 0000 3540 acb7 04ce 84fd 83c0
000001c0: 3726 0113 803d c2c0 0000 0000 0000 3640
000001d0: 1da8 628f f987 a140 31e6 f59f 66cd c0c0
000001e0: 0000 0000 0000 3840 928b 2332 07f1 9dc0
000001f0: b2c0 8fa6 cd14 c4c0 0000 0000 0000 3540
00000200: 50c3 0078 d00f 6ac0 25de 8560 40db c5c0
00000210: 0000 0000 0000 3640 1229 3ead 41a2 9f40
00000220: 3e5e bb0a b1cd c2c0 0000 0000 0000 3840
00000230: f01c 56dd e330 a3c0 7c89 5906 5a70 c7c0
00000240: 0000 0000 0000 3540 bb77 a69c 2d05 90c0
00000250: 528b 8626 c833 c3c0 0000 0000 0000 3640
00000260: 492d 3e0a 3f7e a240 68c6 7def 22cd c1c0
00000270: 0000 0000 0000 3840 66fe dea3 b23b 9dc0
00000280: cbc0 9a8b ef05 c7c0 0000 0000 0000 3540
00000290: 889f d54e 4352 66c0 9924 9dd6 a70f c5c0
000002a0: 0000 0000 0000 3640 14ea b5a1 8e3c 9f40
000002b0: c3b1 5c1e 7a00 c2c0 0000 0000 0000 3840
000002c0: 0c8a 593c f808 a3c0 b1a3 7943 80e7 c8c0
000002d0: 0000 0000 0000 3540 0048 8eb4 0b85 81c0
000002e0: 3171 e8d0 280b c4c0 0000 0000 0000 3640
000002f0: 642d f18f ee06 a340 2d77 3f63 68ca c3c0
00000300: 0000 0000 0000 3840 8730 74b0 ce6e 9dc0
00000310: d83d da36 92ee c7c0 0000 0000 0000 3540
00000320: ef91 88c5 82aa 89c0 b355 d091 8208 c3c0
00000330: 0000 0000 0000 3640 bf8f 1ce9 8b0e a240
00000340: fa12 c4cb 0b2c c0c0 0000 0000 0000 3840
00000350: caf6 87a8 9daf a0c0 7bb0 f093 d3ad c6c0
00000360: 0000 0000 0000 3540 c8cb 4cc6 8683 85c0
00000370: 155d f9a7 b42e c2c0 0000 0000 0000 3640
00000380: 2f4c e39f a881 a040 4c68 54ef 329d c0c0
00000390: 0000 0000 0000 3840 86d5 d0ea fccb a1c0
000003a0: 85e9 1e01 f768 c8c0 0000 0000 0000 3540
000003b0: 1fb3 7618 eac6 8cc0 497d 2b59 d33e bec0
000003c0: 0000 0000 0000 3640 6962 80be 99b7 a240
000003d0: 42f7 65a9 b87e c2c0 0000 0000 0000 3840
000003e0: d216 a38e b398 a0c0 cace 7dc2 5cc0 c7c0
000003f0: 0000 0000 0000 3540 0b5b 2da5 b9c3 8ac0
00000400: 1cd1 9e72 2095 c0c0 0000 0000 0000 3640
00000410: ae4f 1947 91ff a040 6635 fb00 6350 bcc0
00000420: 0000 0000 0000 3840 b8ec ac4a 71ab a4c0
00000430: a850 bc0b ed7a c5c0 0000 0000 0000 3540
00000440: a12a 87ec ae27 93c0 6622 3b4a 48af c2c0
00000450: 0000 0000 0000 3640 d255 c7a1 95c1 a340
00000460: b24b 7a99 ae93 c1c0 0000 0000 0000 3840
00000470: 0acc 8991 e26b 9cc0 90ca fb79 c2ca c9c0
00000480: 0000 0000 0000 3540 f751 bc26 fd92 81c0
00000490: dfc8 9400 c94d c2c0 0000 0000 0000 3640
000004a0: 0af0 78d4 cc61 a340 aebb ff25 3434 c0c0
000004b0: 0000 0000 0000 3840 194e 9956 9ae2 9dc0
000004c0: a670 c15e b883 c7c0 0000 0000 0000 3540
000004d0: b69b 934d def4 82c0 1c35 8593 abe2 c0c0
000004e0: 0000 0000 0000 3640 d5df 1af7 d0cb a440
000004f0: 09eb d86c 6d96 c3c0 0000 0000 0000 3840
00000500: 2f69 2ed4 e43f a4c0 cdfc e78e d673 cbc0
00000510: 0000 0000 0000 3540 6600 c225 baf5 8cc0
00000520: e0e7 1bab da3d bfc0 0000 0000 0000 3640
00000530: 09bf 63e3 3578 a340 353d f536 68aa c3c0
00000540: 0000 0000 0000 3840 12f5 11a0 9477 a2c0
00000550: 7ce2 e228 e552 c5c0 0000 0000 0000 3540
00000560: 313d 8b8c 9468 8bc0 0119 9773 4275 c2c0
00000570: 0000 0000 0000 3640 1918 92ef 2717 a540
00000580: 886c 4aa9 b32b c1c0 0000 0000 0000 3840
00000590: 2927 7e69 fd17 95c0 337d ba0c 0cf1 c9c0
000005a0: 0000 0000 0000 3540 2dcb 12c4 5386 8ac0
000005b0: 1508 d82a 47da c0c0 0000 0000 0000 3640
000005c0: f34d 9bb5 ae12 a440 b205 bad2 91b4 c1c0
000005d0: 0000 0000 0000 3840 4cf9 b9d1 3d17 96c0
000005e0: a152 8ce9 6653 c5c0 0000 0000 0000 3540
000005f0: 44b9 e486 d644 83c0 e9ba 70dc c181 c2c0
00000600: 0000 0000 0000 3640 e366 d0d6 b061 a440
00000610: d176 0fb1 a62d c3c0 0000 0000 0000 3840
00000620: 51a0 2a97 7cda a1c0 4571 f82b 06b4 c6c0
00000630: 0000 0000 0000 3540 3eb9 8215 f32c 8dc0
00000640: 00bf ed53 40f8 c0c0 0000 0000 0000 3640
00000650: e7cf de41 4017 a340 112c c791 60f6 c2c0
00000660: 0000 0000 0000 3840 a97f 2c28 7b01 a5c0
00000670: 574b 483c d978 c5c0 0000 0000 0000 3540
00000680: d091 6b10 0032 42c0 c259 c874 466b c0c0
00000690: 0000 0000 0000 3640 acb5 117f 612f a440
000006a0: 099e ac35 d650 c1c0 0000 0000 0000 3840
000006b0: cde8 d8e3 f4b4 9cc0 19dd ade8 b5fc cac0
000006c0: 0000 0000 0000 3540 e9e3 4c0f beff 77c0
000006d0: 6297 4253 7884 c3c0 0000 0000 0000 3640
000006e0: 61ff 2100 1e53 a140 cbb7 31e9 78cf c2c0
000006f0: 0000 0000 0000 3840 b00c 0476 9298 96c0
00000700: da9c ca6c 3f01 c9c0 0000 0000 0000 3540
00000710: 742a 30ad e5ab 94c0 8977 84c1 5722 c0c0
00000720: 0000 0000 0000 3640 f619 cba1 c80e a340
00000730: 4902 0f53 9d72 c2c0 0000 0000 0000 3840
00000740: 37fd 7f16 8240 9cc0 fcf5 f9ff 3609 c8c0
00000750: 0000 0000 0000 3540 f729 5127 215c 7ec0
00000760: 7cdd e164 4785 c1c0 0000 0000 0000 3640
00000770: 98fa b3a5 0657 9940 b2f4 2e80 f270 c1c0
00000780: 0000 0000 0000 3840 f144 c208 c6b8 a1c0
00000790: b47f e449 8cd0 c7c0 0000 0000 0000 3540
000007a0: eadf d8de af07 93c0 b741 09de 2856 c2c0
000007b0: 0000 0000 0000 3640 2ae4 8b70 c9df 9d40
000007c0: c9ce 4cc1 8c80 bfc0 0000 0000 0000 3840
000007d0: 6e41 ff72 bb49 a0c0 42ad b1de 11d1 c8c0
000007e0: 0000 0000 0000 3540 3ed9 a951 659a 88c0
000007f0: fc28 d27d 023a bdc0 0000 0000 0000 3640
