data/input_files/rej_inputparams_2800.npy (npy, 14528 bytes, 1 tensors)

array f8 [200, 3, 3]
21.0 -836.9850697097934 -10031.0863222717 22.0 2206.4763045472105 -8744.72982112563 24.0 -2041.48154413109
-12207.963156442442 21.0 -686.6743613045533 -8395.412270268409 22.0 2522.225980378116 -8580.333846464506 24.0
-1803.4246883756 -12088.350668699904 21.0 -874.5881362001327 -9592.694597522472 22.0 2039.6860484181743 -9293.806927230771
24.0 -1925.778666024508 -11962.578390518527 21.0 -1206.032776924345 -8727.891550307242 22.0 2198.5404023711803
-8517.936110182476 24.0 -1976.0717586053215 -12071.126579786269 21.0 -201.6972601033542 -8509.760584680182 22.0
2367.5887885935176 -7520.644728162729 24.0 -2035.6957791469272 -13738.651068112207 21.0 -1010.3197143802188 -9328.795802226465
22.0 3191.363214789092 -9315.594095834454 24.0 -1547.878499745265 -12821.703741070058 21.0 -1023.5180211980652
-8519.303576666873 22.0 2182.53354791876 -9938.355737668666 24.0 -1977.2457863578952 -11682.811412683728 21.0
-983.078410888361 -8032.723995169612 22.0 2712.810131431268 -9855.768169000372 24.0 -1717.7249946322836 -12773.114407331464
21.0 -911.066488324625 -9093.133634260845 22.0 2199.126952497776 -8032.889625729485 24.0 -1870.071924007794
-12711.233721782515 21.0 -1033.3175545127535 -9082.95330811312 22.0 2646.504181867641 -9375.560598184684 24.0
-2286.920124346368 -11379.25445311781 21.0 -1110.52321150462 -7178.896139530696 22.0 2415.7855272842344 -9517.185477230343
24.0 -2411.112143447459 -11370.40732060712 21.0 -1030.4713503923224 -9353.41416503328 22.0 2014.9034450177212
-7140.0128919722265 24.0 -2713.913064915711 -11263.348227525374 21.0 -475.7530230386388 -9786.668539220984 22.0
2231.0846616964595 -8809.851583561027 24.0 -2054.785743026763 -12124.886923272328 21.0 -710.9455543410527 -9016.549359417828
22.0 2294.868237677473 -9261.616323678909 24.0 -1505.7179320950945 -12725.73137205954 21.0 -1063.4013823779435
-7919.937439782163 22.0 2119.847802602213 -8656.288325090636 24.0 -2387.0202037832305 -10952.633595021178 21.0
-902.580526630247 -9738.85836539672 22.0 1767.9076958947269 -8267.362283046436 24.0 -1962.533527199904 -11657.07641319306
21.0 -893.9557221646896 -7555.865375378 22.0 2696.931256286968 -8867.060657839469 24.0 -2326.26913779742
-11918.937498315652 21.0 -785.6443946734737 -8037.793835180912 22.0 2568.589912835001 -9471.557384584456 24.0
-2534.285435943146 -11623.07993916348 21.0 -582.7893829268828 -8419.652840108367 22.0 1933.852727067907 -8501.539553482318
24.0 -1533.3265604841174 -11712.868226534823 21.0 -1226.2705299176453 -8513.416993920948 22.0 2515.3703707014024
-7557.545449353987 24.0 -2503.093478111192 -11778.709479915426 21.0 -1139.5477827846564 -10584.151934819338 22.0
2350.8515026984264 -9113.52913730334 24.0 -1751.4044409988185 -10774.844237873918 21.0 -654.4633596710141 -8838.982748920682
22.0 2036.6305185521053 -8528.5060042047 24.0 -2271.2397951523158 -12344.1305289276 21.0 -666.1899049319172
-9479.789537146176 22.0 1794.5103151249516 -8552.19650672112 24.0 -2034.366960780888 -11428.586490209384 21.0
-582.7307289678947 -8472.199982447346 22.0 2717.8846303466657 -8647.370385964306 24.0 -2110.68511614756 -12468.019186797776
21.0 -829.8479769921425 -8753.242647478924 22.0 2531.1827983339617 -8699.543874163883 24.0 -2012.5107934769128
-12492.075399804076 21.0 -100.44021652836273 -8707.67361600641 22.0 2766.502202381673 -10024.238573502978 24.0
-2116.580103088117 -10476.516534369546 21.0 -303.2479990795124 -9535.82767921474 22.0 2260.504249866205 -9333.561510700947
24.0 -2093.424929267553 -12681.732278054416 21.0 -600.6708287818686 -8947.362001574693 22.0 2120.8125617926653
-11421.096029482567 24.0 -2403.6611871137347 -11209.305121044605 21.0 -968.1038372807488 -10522.474190436144 22.0
00000000: 0000 0000 0000 3540 be5e 3a6c e127 8ac0
00000010: efb2 9b0c 8b97 c3c0 0000 0000 0000 3640
00000020: 698a 30de f33c a140 4155 c76a 5d14 c1c0
00000030: 0000 0000 0000 3840 739a e719 ede5 9fc0
00000040: 9cd6 b548 fbd7 c7c0 0000 0000 0000 3540
00000050: f425 8a17 6575 85c0 f7ab 45c5 b465 c0c0
00000060: 0000 0000 0000 3640 183b b3b3 73b4 a340
00000070: 781f 7bbb 2ac2 c0c0 0000 0000 0000 3840
00000080: c670 82e1 b22d 9cc0 e942 b6e2 2c9c c7c0
00000090: 0000 0000 0000 3540 4f89 c080 b454 8bc0
000000a0: 7355 92e8 58bc c2c0 0000 0000 0000 3640
000000b0: 20fe 7983 bede 9f40 3539 6449 e726 c2c0
000000c0: 0000 0000 0000 3840 1357 a05a 1d17 9ec0
000000d0: b254 b308 4a5d c7c0 0000 0000 0000 3540
000000e0: 8028 4690 21d8 92c0 2c0a 521e f20b c1c0
000000f0: 0000 0000 0000 3640 cd9d 9eaf 142d a140
00000100: 985d 75d2 f7a2 c0c0 0000 0000 0000 3840
00000110: 407c 167b 49e0 9ec0 2e35 c433 9093 c7c0
00000120: 0000 0000 0000 3540 c896 6bf4 4f36 69c0
00000130: 9cbb d65a e19e c0c0 0000 0000 0000 3640
00000140: d5d2 b275 2d7f a240 bba5 e70c a560 bdc0
00000150: 0000 0000 0000 3840 2a25 547a c8ce 9fc0
00000160: b32c 3356 53d5 cac0 0000 0000 0000 3540
00000170: ceb8 69c6 8e92 8fc0 60ec d8dc 6538 c2c0
00000180: 0000 0000 0000 3640 26f1 49f7 b9ee a840
00000190: d611 550b cc31 c2c0 0000 0000 0000 3840
000001a0: d4ed 6f95 832f 98c0 60f8 2f14 da0a c9c0
000001b0: 0000 0000 0000 3540 9942 4ce8 24fc 8fc0
000001c0: 06a8 99db a6a3 c0c0 0000 0000 0000 3640
000001d0: d95b 312d 110d a140 70da cf88 2d69 c3c0
000001e0: 0000 0000 0000 3840 da43 6baf fbe4 9ec0
000001f0: 16ee 5edc 67d1 c6c0 0000 0000 0000 3540
00000200: 4949 e395 a0b8 8ec0 f257 bf57 b960 bfc0
00000210: 0000 0000 0000 3640 8405 8cc9 9e31 a540
00000220: 339f 5c53 e23f c3c0 0000 0000 0000 3840
00000230: bc2d fe64 e6d6 9ac0 8841 e6a4 8ef2 c8c0
00000240: 0000 0000 0000 3540 a4de 072b 8878 8cc0
00000250: fa6d ed1a 91c2 c1c0 0000 0000 0000 3640
00000260: 30f4 eaff 402e a140 d105 83be e360 bfc0
00000270: 0000 0000 0000 3840 1775 72a6 4938 9dc0
00000280: 226a 98ea 9dd3 c8c0 0000 0000 0000 3540
00000290: e59b 022d 4525 90c0 6e10 0006 7abd c1c0
000002a0: 0000 0000 0000 3640 8231 2024 02ad a440
000002b0: b56a aec1 c74f c2c0 0000 0000 0000 3840
000002c0: cfcf 891a d7dd a1c0 ae75 eb91 a039 c6c0
000002d0: 0000 0000 0000 3540 efb4 c1c4 175a 91c0
000002e0: fe78 6669 e50a bcc0 0000 0000 0000 3640
000002f0: ced7 a130 92df a240 3dc7 b7bd 9796 c2c0
00000300: 0000 0000 0000 3840 98ae dd6a 39d6 a2c0
00000310: 49e7 1423 3435 c6c0 0000 0000 0000 3540
00000320: ed5f ada9 e219 90c0 8b1c 5c03 b544 c2c0
00000330: 0000 0000 0000 3640 63d3 b020 9d7b 9f40
00000340: 1867 e34c 03e4 bbc0 0000 0000 0000 3840
00000350: 35a0 3e7d d333 a5c0 8634 b892 acff c5c0
00000360: 0000 0000 0000 3540 69c1 e261 0cbc 7dc0
00000370: 1c75 b192 551d c3c0 0000 0000 0000 3640
00000380: 0923 c758 2b6e a140 36ac b000 ed34 c1c0
00000390: 0000 0000 0000 3840 04f6 e84c 920d a0c0
000003a0: 5ba8 b386 71ae c7c0 0000 0000 0000 3540
000003b0: 4c5b cb7e 9037 86c0 a9ce 6851 469c c1c0
000003c0: 0000 0000 0000 3640 ce1b a689 bced a140
000003d0: 55be b1e3 ce16 c2c0 0000 0000 0000 3840
000003e0: b854 9729 df86 97c0 7782 999d ddda c8c0
000003f0: 0000 0000 0000 3540 d569 fb03 9b9d 90c0
00000400: 5cb6 0dfc efef bec0 0000 0000 0000 3640
00000410: f0c3 2e13 b28f a040 7329 d6e7 24e8 c0c0
00000420: 0000 0000 0000 3840 7678 2658 0aa6 a2c0
00000430: 6f43 a419 5164 c5c0 0000 0000 0000 3540
00000440: f25a 25eb a434 8cc0 77d5 eade 6d05 c3c0
00000450: 0000 0000 0000 3640 435a 087b a19f 9b40
00000460: 2b76 4a5f ae25 c0c0 0000 0000 0000 3840
00000470: 754c f454 22aa 9ec0 9652 e8c7 89c4 c6c0
00000480: 0000 0000 0000 3540 3c8b a951 a5ef 8bc0
00000490: 46a3 3d89 dd83 bdc0 0000 0000 0000 3640
000004a0: 72c1 9fcd dc11 a540 62d6 a2c3 8751 c1c0
000004b0: 0000 0000 0000 3840 13ec 6dcc 892c a2c0
000004c0: e4de f1ff 7747 c7c0 0000 0000 0000 3540
000004d0: 4a02 65b8 278d 88c0 6e4c c838 cb65 bfc0
000004e0: 0000 0000 0000 3640 a41b 0e09 2e11 a440
000004f0: c4c8 6058 c77f c2c0 0000 0000 0000 3840
00000500: d4f1 a824 92cc a3c0 684e 723b 8ab3 c6c0
00000510: 0000 0000 0000 3540 dcf7 fea7 5036 82c0
00000520: 7ac1 4390 d371 c0c0 0000 0000 0000 3640
00000530: 4cd4 4831 6937 9e40 80a8 1610 c59a c0c0
00000540: 0000 0000 0000 3840 cd1d df65 4ef5 97c0
00000550: 4b0e 0c22 6fe0 c6c0 0000 0000 0000 3540
00000560: 8173 cb05 1529 93c0 8d8a 0e60 b5a0 c0c0
00000570: 0000 0000 0000 3640 d783 3aa1 bda6 a340
00000580: 00a1 91a2 8b85 bdc0 0000 0000 0000 3840
00000590: ecec 5cdc 2f8e a3c0 f6e4 3cd0 5a01 c7c0
000005a0: 0000 0000 0000 3540 a565 f8ed 30ce 91c0
000005b0: 17a4 9972 13ac c4c0 0000 0000 0000 3640
000005c0: 6564 29f8 b35d a240 786a c5ba c3cc c1c0
000005d0: 0000 0000 0000 3840 59fc c725 9e5d 9bc0
000005e0: 4395 fc0f 6c0b c5c0 0000 0000 0000 3540
000005f0: 544a eaf5 b473 84c0 4175 b7ca 7d43 c1c0
00000600: 0000 0000 0000 3640 41c3 a7a6 85d2 9f40
00000610: 6aeb bec4 40a8 c0c0 0000 0000 0000 3840
00000620: df21 6ec6 7abe a1c0 9d01 2cb5 101c c8c0
00000630: 0000 0000 0000 3540 787f e0ec 84d1 84c0
00000640: e79e 8d0f e583 c2c0 0000 0000 0000 3640
00000650: 4951 0c90 0a0a 9c40 54da 2127 19b4 c0c0
00000660: 0000 0000 0000 3840 5023 91c4 77c9 9fc0
00000670: 5d76 1c12 4b52 c6c0 0000 0000 0000 3540
00000680: c8da 6d88 d835 82c0 905b 0699 198c c0c0
00000690: 0000 0000 0000 3640 f5cf 44ee c43b a540
000006a0: cca9 ce68 afe3 c0c0 0000 0000 0000 3840
000006b0: 772f 8bc7 5e7d a0c0 7b86 b674 025a c8c0
000006c0: 0000 0000 0000 3540 1a48 29a8 c8ee 89c0
000006d0: 3895 120f 9f18 c1c0 0000 0000 0000 3640
000006e0: 4244 be97 5dc6 a340 8229 ab9d c5fd c0c0
000006f0: 0000 0000 0000 3840 67f9 710d 0b72 9fc0
00000700: 5166 b3a6 0966 c8c0 0000 0000 0000 3540
00000710: 801e f281 2c1c 59c0 cc9e 0c39 d601 c1c0
00000720: 0000 0000 0000 3640 85aa ab20 019d a540
00000730: 7e98 9389 1e94 c3c0 0000 0000 0000 3840
00000740: 8b9f 4503 2989 a0c0 3b58 cc1d 4276 c4c0
00000750: 0000 0000 0000 3540 1aff e1cd f7f3 72c0
00000760: 727b 64f1 e99f c2c0 0000 0000 0000 3640
00000770: bad8 092d 02a9 a140 7628 95df c73a c2c0
00000780: 0000 0000 0000 3840 8236 5490 d95a a0c0
00000790: a68b 49bb ddc4 c8c0 0000 0000 0000 3540
000007a0: bbfa 7adb 5dc5 82c0 344e 1156 ae79 c1c0
000007b0: 0000 0000 0000 3640 f46a 1908 a091 a040
000007c0: 8aaf b14a 8c4e c6c0 0000 0000 0000 3840
000007d0: 0e0c 1e87 52c7 a2c0 f3d5 340e a7e4 c5c0
000007e0: 0000 0000 0000 3540 60e7 a3a8 d440 8ec0
000007f0: a8af 45b2 3c8d c4c0 0000 0000 0000 3640
