data/input_files/rej_inputparams_2000.npy (npy, 14528 bytes, 1 tensors)

array f8 [200, 3, 3]
0	0x4035000000000000	21.0
1	0xc092682fdfcf416e	-1178.046752203339
2	0xc0c064001ecf35c4	-8392.000940228703
3	0x4036000000000000	22.0
4	0x4098c4a078fe68ae	1585.15671155466
5	0xc0befc99b8791c1e	-7932.600471085896
6	0x4038000000000000	24.0
7	0xc0a03348dfe55171	-2073.6423331891933
8	0xc0c4c30e525d1f45	-10630.111888542431
9	0x4035000000000000	21.0
10	0xc087eaa6dc9447fc	-765.3314754089802
11	0xc0c24e374bbf4618	-9372.431999119974
12	0x4036000000000000	22.0
13	0x40a57e55396395dc	2751.166453468364
14	0xc0c0e6f26632e895	-8653.893743861738
15	0x4038000000000000	24.0
16	0xc0a08736645a2436	-2115.6062343758776
17	0xc0c92128ddfa3acd	-12866.31927421447
18	0x4035000000000000	21.0
19	0xc064201598cdb314	-161.00263633895577
20	0xc0c039adbac7913b	-8307.357262559808
21	0x4036000000000000	22.0
22	0x40a09f82dd19a65b	2127.755593110616
23	0xc0c1047fb15cbf73	-8712.997600167733
24	0x4038000000000000	24.0
25	0xc0a1cf7843475d94	-2279.7348882962924
26	0xc0c860608c173895	-12480.7542752291
27	0x4035000000000000	21.0
28	0xc0867f5711ea57aa	-719.917514639664
29	0xc0c34c39874c8dcf	-9880.449441498988
30	0x4036000000000000	22.0
31	0x4097e4b3d49798e2	1529.1756156622946
32	0xc0c19fed22ac2b06	-9023.852620621688
33	0x4038000000000000	24.0
34	0xc0a32049e64c6c72	-2448.1443351633434
35	0xc0c733ce5ee5f15e	-11879.612271063666
36	0x4035000000000000	21.0
37	0xc073c437594e0a5a	-316.26351290211244
38	0xc0bf094116bc9d1e	-7945.254253185614
39	0x4036000000000000	22.0
40	0x40a40fb28ccd4df1	2567.848730483784
41	0xc0c1cbac9a385c15	-9111.34845642563
42	0x4038000000000000	24.0
43	0xc0955fe51d4d644e	-1367.9737445919486
44	0xc0c7ce76f67ca8ab	-12188.929397184713
45	0x4035000000000000	21.0
46	0xc08499d45a2fc580	-659.2286876423022
47	0xc0c2e520e22363f1	-9674.25690119152
48	0x4036000000000000	22.0
49	0x409c07ef070a1345	1793.983425290514
50	0xc0c292478192679d	-9508.558641720383
51	0x4038000000000000	24.0
52	0xc09a8fb0095d211f	-1699.9219107200113
53	0xc0c53073e8afe00c	-10848.90553854408
54	0x4035000000000000	21.0
55	0xc08638f7923df3c0	-711.1208844032299
56	0xc0c3a84411407e8d	-10064.531776487152
57	0x4036000000000000	22.0
58	0x40a6b5ea07498923	2906.957086847296
59	0xc0bf2d78857b82a0	-7981.47078678073
60	0x4038000000000000	24.0
61	0xc09ee4b81b3fc698	-1977.179791447159
62	0xc0c7f0c33d0fe87c	-12257.525300968664
63	0x4035000000000000	21.0
64	0xc081b1891c2642f6	-566.1919482220826
65	0xc0c09cca21643ab9	-8505.579144028352
66	0x4036000000000000	22.0
67	0x40a33500ee44be0a	2458.50181784458
68	0xc0c1063fae492270	-8716.497506276908
69	0x4038000000000000	24.0
70	0xc098af69e381f1c8	-1579.8534069351026
71	0xc0c66496e57eadcb	-11465.17887862669
72	0x4035000000000000	21.0
73	0xc085048f17b9f79d	-672.5698694733325
74	0xc0c1db6656427644	-9142.799507434604
75	0x4036000000000000	22.0
76	0x40a37c070a1568c4	2494.0137488069904
77	0xc0c0fea804d987b3	-8701.312648001918
78	0x4038000000000000	24.0
79	0xc0a382ad14ecc143	-2497.3380502687373
80	0xc0c6de9ee3d2abcf	-11709.24132760419
81	0x4035000000000000	21.0
82	0xc08a1bafc9bf625b	-835.4608340217486
83	0xc0c15a4c2e5769d6	-8884.595164229086
84	0x4036000000000000	22.0
85	0x40a56da5e063d103	2742.823977584137
86	0xc0c031fd1d695a55	-8291.977460068805
87	0x4038000000000000	24.0
88	0xc0a5c852d438980e	-2788.161775368272
89	0xc0c7833529f0ff88	-12038.415342449924
90	0x4035000000000000	21.0
91	0xc078a8a36dae7bab	-394.5398995223756
92	0xc0c1a516d4cf7a39	-9034.1783694598
93	0x4036000000000000	22.0
94	0x40a3ce12232a986d	2535.035424548251
95	0xc0c329deb646dd7f	-9811.739937647011
96	0x4038000000000000	24.0
97	0xc098122f1448cd84	-1540.5459758162915
98	0xc0c7554e9b609f1a	-11946.614116742789
99	0x4035000000000000	21.0
100	0xc079ec764a13befd	-414.7788792392092
101	0xc0c21a16371a7fbc	-9268.17355662572
102	0x4036000000000000	22.0
103	0x40a5e153fa74070f	2800.664020181524
104	0xc0c0f795fbcc1c6a	-8687.171746744036
105	0x4038000000000000	24.0
106	0xc0a4947343415da6	-2634.2251224924867
107	0xc0c75cf772f223ce	-11961.933195369227
108	0x4035000000000000	21.0
109	0xc0926c97bea4bd2a	-1179.1481881847817
110	0xc0c023c73cdb9d62	-8263.556544734809
111	0x4036000000000000	22.0
112	0x40a44f0d84f9e8d6	2599.526405152962
113	0xc0c08cb198ea453a	-8473.387479099085
114	0x4038000000000000	24.0
115	0xc0a021fc8a3c918d	-2064.993242161529
116	0xc0c9815162011765	-13058.63580335276
117	0x4035000000000000	21.0
118	0xc077f797b8a579ce	-383.4745413268946
119	0xc0c067dc267d761a	-8399.719924624125
120	0x4036000000000000	22.0
121	0x40a0527f76e11eb0	2089.2489538526497
122	0xc0bccfd769e9402f	-7375.841459825678
123	0x4038000000000000	24.0
124	0xc09e1fdb0a455ca9	-1927.9639063680463
125	0xc0c8e2cd11ba7592	-12741.602103526504
126	0x4035000000000000	21.0
127	0xc083d22b348a3601	-634.2710963056307
128	0xc0c0a78fd32f1371	-8527.123632320874
129	0x4036000000000000	22.0
130	0x40a3a55e6a28e57f	2514.68440368463
131	0xc0bd7846fcb9d773	-7544.277293791866
132	0x4038000000000000	24.0
133	0xc0a4510869abd0db	-2600.516431206937
134	0xc0c5e9814519156c	-11219.009921203098
135	0x4035000000000000	21.0
136	0xc09429e633d0eef6	-1290.4748070379114
137	0xc0c27a4b79b57e63	-9460.589651762688
138	0x4036000000000000	22.0
139	0x40a41a261d23fc16	2573.0744410748694
140	0xc0c09489ac91812e	-8489.075578868938
141	0x4038000000000000	24.0
142	0xc09ab4e96c26e1b6	-1709.227951629187
143	0xc0c86c964ce9c355	-12505.17422220266
144	0x4035000000000000	21.0
145	0xc085a7617b69f472	-692.9225986745571
146	0xc0c015b688957e83	-8235.42604321172
147	0x4036000000000000	22.0
148	0x40a05ece9147031d	2095.4034521285344
149	0xc0c0c435a86ec375	-8584.419202657164
150	0x4038000000000000	24.0
151	0xc09f5039224d56b0	-2004.0557949146423
152	0xc0c541977f842129	-10883.18357898349
153	0x4035000000000000	21.0
154	0xc07df70f6d45e7d1	-479.4412663202939
155	0xc0c4d0ee16c0600e	-10657.860069319631
156	0x4036000000000000	22.0
157	0x40a2afe30c6ef607	2391.943454234631
158	0xc0c17508fba10151	-8938.070179105418
159	0x4038000000000000	24.0
160	0xc099a12218047bc6	-1640.2832947445436
161	0xc0c95c53e916c2d9	-12984.65555080904
162	0x4035000000000000	21.0
163	0xc08e3273de95dfe0	-966.3065768917986
164	0xc0c36f37158a2228	-9950.430344835928
165	0x4036000000000000	22.0
166	0x40a032c3b6fc03bd	2073.382255435425
167	0xc0c1be57c00cbf8d	-9084.68554839471
168	0x4038000000000000	24.0
169	0xc09adb305ec17db4	-1718.797236464784
170	0xc0c8a908b39d92f6	-12626.067981430777
171	0x4035000000000000	21.0
172	0xc0850f59367b41e8	-673.9185609464157
173	0xc0c3137e218bca33	-9766.985398744326
174	0x4036000000000000	22.0
175	0x40a3d0398f286380	2536.112420332094
176	0xc0c2db708d165dee	-9654.87930564486
177	0x4038000000000000	24.0
178	0xc09ebb4b93586ba0	-1966.8238042655648
179	0xc0c78ca95deddda8	-12057.323178990584
180	0x4035000000000000	21.0
181	0xc083fce131804377	-639.6099576969708
182	0xc0c0d49a65fa620e	-8617.206237123373
183	0x4036000000000000	22.0
184	0x40a2b50ebf6eac1e	2394.528804262648
185	0xc0bf9fb90ddc4cf0	-8095.722867745193
186	0x4038000000000000	24.0
187	0xc09b97ca9bc580dc	-1765.9478598461055
188	0xc0c6e9b52e3814b7	-11731.41547299396
189	0x4035000000000000	21.0
190	0xc07cef40be9cc810	-462.9533067821767
191	0xc0c1532159a39c00	-8870.26054806821
192	0x4036000000000000	22.0
193	0x409bb73335c97bc0	1773.8000098687917
194	0xc0c1f1788b4656a7	-9186.94175032836
195	0x4038000000000000	24.0
196	0xc09edcbdc8e53aec	-1975.1853366677487
197	0xc0c7bf3698b3ad3b	-12158.426535091005
198	0x4035000000000000	21.0
199	0xc08d2ab6cde715ce	-933.3392599156884
200	0xc0c0eaaa588e19b0	-8661.330827486556
201	0x4036000000000000	22.0
202	0x40a0b957a01145f4	2140.671143092908
203	0xc0bfa8ec32f694fa	-8104.922652636882
204	0x4038000000000000	24.0
205	0xc0a134dfc02f2cfc	-2202.437013124696
206	0xc0c81cddabc6d0d1	-12345.731804706536
207	0x4035000000000000	21.0
208	0xc091d4ddc51dfb4f	-1141.216572254623
209	0xc0c292eb969bdbc1	-9509.84053371649
210	0x4036000000000000	22.0
211	0x40a154a9ef51a12c	2218.331903983044
212	0xc0c0550f6e6941dc	-8362.120556981237
213	0x4038000000000000	24.0
214	0xc09efd0b09edf1cc	-1983.260780065425
215	0xc0c7c7084f53f995	-12174.064920899264
216	0x4035000000000000	21.0
217	0xc09312319533fd28	-1220.5484207270874
218	0xc0c5323031b04385	-10852.376516373604
219	0x4036000000000000	22.0
220	0x40a43c69e3ac4d8e	2590.2068151325866
221	0xc0c0c02f57aa478f	-8576.369862828198
222	0x4038000000000000	24.0
223	0xc09d67fdb52cf825	-1881.9977614428
224	0xc0c8c9e00394be05	-12691.750109284194
225	0x4035000000000000	21.0
226	0xc0912ff3c461d407	-1099.9880538259183
227	0xc0c06111ae2f67ae	-8386.13812820971
228	0x4036000000000000	22.0
229	0x40a2a32aa2b35a79	2385.583272557062
230	0xc0c2d54eb5912db5	-9642.614915988272
231	0x4038000000000000	24.0
232	0xc0a0adbd9977fb3b	-2134.8703114980867
233	0xc0c671d2253f0912	-11491.6417616648
234	0x4035000000000000	21.0
235	0xc0873f811ff43b43	-743.938049228724
236	0xc0bf8e6bd39686be	-8078.421197326561
237	0x4036000000000000	22.0
238	0x40a5cce71a75da7b	2790.451373751564
239	0xc0c41c95d4080143	-10297.170533180824
240	0x4038000000000000	24.0
241	0xc09fb83bda9c55dd	-2030.058451121083
242	0xc0c90e1e39d51348	-12828.23613990251
243	0x4035000000000000	21.0
244	0xc08fef738eff814b	-1021.9314250909168
245	0xc0c1c6fe28676f4a	-9101.985608033505
246	0x4036000000000000	22.0
247	0x40a1c2006234eb5d	2273.0007492577847
248	0xc0c03ef2bf918c13	-8317.896471207996
249	0x4038000000000000	24.0
250	0xc09d44582aa1707e	-1873.08610012292
251	0xc0c851d139850900	-12451.63456786098
252	0x4035000000000000	21.0
253	0x4055078d87e4ed00	84.11801335674318
254	0xc0c36416bcd908ce	-9928.177638177203
255	0x4036000000000000	22.0
