data/input_files/rej_inputparams_400.npy (npy, 14528 bytes, 1 tensors)

array f8 [200, 3, 3]
00000000: 0000 0000 0000 3540 29f0 5bb0 f697 79c0
00000010: 0f0d 299f 9ca5 c2c0 0000 0000 0000 3640
00000020: 3705 285c 7e4d 9c40 da27 f71e 9861 c2c0
00000030: 0000 0000 0000 3840 a21f 5163 52c0 a0c0
00000040: b989 9188 abb7 c8c0 0000 0000 0000 3540
00000050: 6493 24a3 4240 8ac0 4361 f1f3 40a3 c0c0
00000060: 0000 0000 0000 3640 0229 83ba a732 a240
00000070: 84ea 9444 668b c4c0 0000 0000 0000 3840
00000080: eded c551 9ece a7c0 9199 21ac 059b c4c0
00000090: 0000 0000 0000 3540 99c4 b9cf 5562 91c0
000000a0: e197 70c6 d945 c0c0 0000 0000 0000 3640
000000b0: d371 87dd 6a1f 9a40 bbf2 663d 3c1d c2c0
000000c0: 0000 0000 0000 3840 d793 70f2 6b59 a0c0
000000d0: 9529 1f3b d8f0 c6c0 0000 0000 0000 3540
000000e0: 9b73 4e98 098e 88c0 9a5f b280 f734 c3c0
000000f0: 0000 0000 0000 3640 7695 84be 4c42 a440
00000100: 9daa 407e 39f3 c3c0 0000 0000 0000 3840
00000110: 5132 a180 4f42 9bc0 c647 a4e9 d7cd c9c0
00000120: 0000 0000 0000 3540 60b3 e9c0 f617 81c0
00000130: 03e2 0cef 029b c1c0 0000 0000 0000 3640
00000140: ba6e 5e43 1d1d a040 a575 91da dd99 c1c0
00000150: 0000 0000 0000 3840 114b b133 efcc a0c0
00000160: 2015 4e30 7f74 c4c0 0000 0000 0000 3540
00000170: 64e6 0d7b 75fa 82c0 9f1d 44fa 6f47 c0c0
00000180: 0000 0000 0000 3640 7485 6868 cf20 a440
00000190: a6b5 ceee 69b8 c1c0 0000 0000 0000 3840
000001a0: 030e 1a2a 2048 9ec0 371c e850 7527 c7c0
000001b0: 0000 0000 0000 3540 258c 84a2 ceaf 84c0
000001c0: 6620 5ce9 ba4c c1c0 0000 0000 0000 3640
000001d0: a32a 647f 3a7b a440 d27e 4a44 233e c2c0
000001e0: 0000 0000 0000 3840 7856 057c 8099 a1c0
000001f0: c6bd 47ac 3dc9 c5c0 0000 0000 0000 3540
00000200: b7af d2dd 662c 93c0 d086 b061 380a c0c0
00000210: 0000 0000 0000 3640 a596 03c7 9ae4 a040
00000220: 3f65 d6ef a339 c2c0 0000 0000 0000 3840
00000230: 72f3 023d 5044 a3c0 6a2c 5248 c18d c7c0
00000240: 0000 0000 0000 3540 617b 0e11 639b 83c0
00000250: 0387 c5c6 9741 c3c0 0000 0000 0000 3640
00000260: a4ad 45ae bd06 a140 7c55 8e8a fd46 c0c0
00000270: 0000 0000 0000 3840 f9ce cbab 64a3 9dc0
00000280: 8d51 2f2f df85 cac0 0000 0000 0000 3540
00000290: 9d9a 904b 5420 81c0 dd02 f86b 9009 c2c0
000002a0: 0000 0000 0000 3640 ec83 2d74 6591 9e40
000002b0: 0a9e 3a0d 20e0 c2c0 0000 0000 0000 3840
000002c0: 0af8 efaf 9c05 9dc0 c72e 10b9 aec4 c7c0
000002d0: 0000 0000 0000 3540 809e 8d56 70cc 8bc0
000002e0: 207c d6bb b552 c3c0 0000 0000 0000 3640
000002f0: cab9 50e2 a43b 9e40 b696 b616 26d2 c0c0
00000300: 0000 0000 0000 3840 94d4 a5a0 3b93 a2c0
00000310: 51dc 2de4 a861 c5c0 0000 0000 0000 3540
00000320: b43e e3ee bb41 80c0 a55b b68c cc6c c2c0
00000330: 0000 0000 0000 3640 9fd1 e3e3 ef3b a040
00000340: b46b 7345 07d2 bfc0 0000 0000 0000 3840
00000350: 1675 90d3 3b7b 9dc0 b4dd cfcb d55a c9c0
00000360: 0000 0000 0000 3540 a0f4 ed08 c089 81c0
00000370: c457 c5b4 1ce1 c2c0 0000 0000 0000 3640
00000380: 1ce5 5cf6 3256 a240 a2f7 6782 1fe9 c1c0
00000390: 0000 0000 0000 3840 8fc0 b036 82a3 9ec0
000003a0: 1766 a2b8 6412 c6c0 0000 0000 0000 3540
000003b0: 3fcd 00d0 eb3c 88c0 173c 00f0 e7d9 c0c0
000003c0: 0000 0000 0000 3640 fe2d 1c6e 967a a240
000003d0: fb7b ac10 fad7 c1c0 0000 0000 0000 3840
000003e0: b8cc a510 4c37 a2c0 52a5 1195 5eda c9c0
000003f0: 0000 0000 0000 3540 b86c 2b82 1f56 90c0
00000400: 7357 c5ec 76f2 c0c0 0000 0000 0000 3640
00000410: 54af 0c5f 37d4 a240 71b2 4280 9c8b c1c0
00000420: 0000 0000 0000 3840 2f12 50bc 6056 9fc0
00000430: d613 c624 e87c c5c0 0000 0000 0000 3540
00000440: 4709 b62f b36a 75c0 06ac 69bb 55ed c0c0
00000450: 0000 0000 0000 3640 b69f f748 a708 9d40
00000460: 852f 323c 2245 bfc0 0000 0000 0000 3840
00000470: a62f 1589 2beb 99c0 6c4e 1173 0ca2 c9c0
00000480: 0000 0000 0000 3540 7ade 250b 9eaf 89c0
00000490: 814c 7b76 3df0 c0c0 0000 0000 0000 3640
000004a0: 670d d110 da71 a840 766f fae6 b2a3 c4c0
000004b0: 0000 0000 0000 3840 cffd 6322 0f85 a0c0
000004c0: 00d9 7dc7 1043 c7c0 0000 0000 0000 3540
000004d0: 4893 58bc c8e3 6040 de74 0419 c7d3 bbc0
000004e0: 0000 0000 0000 3640 0d73 221c 4770 a140
000004f0: ba27 0740 c7ac bfc0 0000 0000 0000 3840
00000500: 4459 7b81 8834 a1c0 4e8a 150a 10f0 c8c0
00000510: 0000 0000 0000 3540 77a6 03f1 68e2 87c0
00000520: 35ca 1642 fbc1 c2c0 0000 0000 0000 3640
00000530: 1461 6116 27ac a140 7764 3bd9 0ae9 bec0
00000540: 0000 0000 0000 3840 f7f7 7aec eb24 9cc0
00000550: 67ca 8628 c97a c7c0 0000 0000 0000 3540
00000560: 5025 90e0 97a1 89c0 4d8f 31bb 841a c2c0
00000570: 0000 0000 0000 3640 214d df6a 5834 a240
00000580: a636 6de1 31ef bfc0 0000 0000 0000 3840
00000590: 6d26 fd38 57ed a2c0 acd4 734b 6ab0 c8c0
000005a0: 0000 0000 0000 3540 885d 2a0a 6bda 87c0
000005b0: 61c4 c946 a0e4 c1c0 0000 0000 0000 3640
000005c0: bf95 8dd7 fc85 a440 19af 8ef4 0c24 c0c0
000005d0: 0000 0000 0000 3840 b0b3 772c f983 a0c0
000005e0: 3efb 0f70 fa7b c6c0 0000 0000 0000 3540
000005f0: 8e25 5735 8906 93c0 6279 e740 fcae c1c0
00000600: 0000 0000 0000 3640 0006 a27f 065d a140
00000610: 4613 d871 ea2e c2c0 0000 0000 0000 3840
00000620: 49b6 6996 7d7c 98c0 3c75 25f1 7f4b c6c0
00000630: 0000 0000 0000 3540 c452 60d1 0719 8cc0
00000640: 6093 a6a4 6df8 bac0 0000 0000 0000 3640
00000650: 6935 8dba d2c0 9b40 1f1d d560 6277 c2c0
00000660: 0000 0000 0000 3840 ade7 6c3f 4ed6 9dc0
00000670: 3c57 ea80 00d5 cac0 0000 0000 0000 3540
00000680: 7c95 b7fe a894 83c0 466f b05e fb24 bdc0
00000690: 0000 0000 0000 3640 b0eb 7f1e 74e9 a340
000006a0: 3b21 1bfd d6d7 c2c0 0000 0000 0000 3840
000006b0: 46be 16eb ee7b 9fc0 599a 6233 2a63 c6c0
000006c0: 0000 0000 0000 3540 8020 b3d4 df0c 91c0
000006d0: 8763 c0bd 9eab c2c0 0000 0000 0000 3640
000006e0: f3e4 a9fb 7377 a240 b55a 486a ba75 c0c0
000006f0: 0000 0000 0000 3840 2e77 6341 21df 9dc0
00000700: f090 0856 2cc0 c7c0 0000 0000 0000 3540
00000710: 24f6 0bcd 011a 91c0 a27b 3fa0 535d c2c0
00000720: 0000 0000 0000 3640 648e e7e8 ea53 a640
00000730: d240 75a9 9524 c3c0 0000 0000 0000 3840
00000740: d998 997d a688 9fc0 3678 00ba 611a c9c0
00000750: 0000 0000 0000 3540 5a31 9e49 3170 95c0
00000760: e8d9 8b46 c39c c5c0 0000 0000 0000 3640
00000770: fab6 8210 cc59 9a40 29ea bbbf 1646 c4c0
00000780: 0000 0000 0000 3840 3efe 2781 0788 a0c0
00000790: 6a95 8606 7d5c c8c0 0000 0000 0000 3540
000007a0: 4afc 49a6 ed85 89c0 2452 2c0f d5a7 c0c0
000007b0: 0000 0000 0000 3640 04a6 9200 be37 a140
000007c0: 0fa0 a514 78b5 c3c0 0000 0000 0000 3840
000007d0: 8482 0e78 e591 a2c0 d508 bffa 75be c6c0
000007e0: 0000 0000 0000 3540 4ed3 5843 9fe0 80c0
000007f0: f016 1aee 0fe2 c2c0 0000 0000 0000 3640
21.0 -409.4977267829259 -9547.223607188584 22.0 1811.3733984234984 -9411.188444990596 24.0 -2144.1609139777293
-12655.340105240104 21.0 -840.0325377328377 -8518.507444546214 22.0 2329.327594851261 -10518.798967947492 24.0
-3047.3092176297127 -10550.044315528854 21.0 -1112.5838002229923 -8331.701368402633 22.0 1671.854360691378 -9274.470623844643
24.0 -2092.7108340435475 -11745.68930425196 21.0 -785.754685032752 -9833.933615013771 22.0 2593.149891036267
-10214.449165423686 24.0 -1744.5776391207658 -13211.686817679449 21.0 -546.9954851396433 -9014.022920236928 22.0
2062.557154608742 -9011.73323267216 24.0 -2150.467191257871 -10472.993661651912 21.0 -607.3073636136946 -8334.874825014556
22.0 2576.4050934470088 -9072.827600325294 24.0 -1938.031410605531 -11854.916531575944 21.0 -661.9758959155339
-8857.460246578044 22.0 2621.6142531683013 -9340.275521575855 24.0 -2252.750946204 -11154.481820075667 21.0
-1227.1004555625675 -8212.44048124869 22.0 2162.302299606456 -9331.280756759106 24.0 -2466.156715481012 -12059.510019561469
21.0 -627.4233723765757 -9859.185753527569 22.0 2179.370470216223 -8333.980790893307 24.0 -1896.8483116002155
-13579.743627466984 21.0 -548.0411597535309 -9235.128294946097 22.0 1956.349075995614 -9664.250403716247 24.0
-1857.4030148978368 -12169.365022681084 21.0 -889.5548525871272 -9893.419794855698 22.0 1934.9110195744893 -8612.29756815299
24.0 -2377.6164600202555 -10947.319463474823 21.0 -520.2167642358313 -9433.598044199704 22.0 2077.968535537089
-8146.028403486056 24.0 -1886.8084242412056 -12981.67028234792 21.0 -561.2187670316962 -9666.224266689162 22.0
2347.09953584954 -9170.246167179026 24.0 -1960.877161752465 -11300.78688459382 21.0 -775.6151428282391 -8627.812011746732
22.0 2365.2938088232177 -9135.95363384298 24.0 -2331.648564511528 -13236.738924222682 21.0 -1045.5307699952227
-8676.92910067339 22.0 2410.108147045519 -8983.222664200906 24.0 -2005.5944683562373 -11001.813622245489 21.0
-342.6687466727057 -8666.66978188419 22.0 1858.1633642855863 -8005.13373101864 24.0 -1658.7925151167233 -13124.09726158456
21.0 -821.9521697004814 -8672.480178272586 22.0 3128.925909550558 -10567.397673897194 24.0 -2114.529559254391
-11910.131088000257 21.0 135.11825387287013 -7123.777725485355 22.0 2232.1388865247195 -8108.778320738982 24.0
-2202.266612867972 -12768.12530774358 21.0 -764.301240948217 -9603.96295437692 22.0 2262.0763426238063 -7913.042377197292
24.0 -1801.2303942884298 -12021.57154927142 21.0 -820.1991587888133 -9269.036962695094 22.0 2330.172690370717
-8175.194845987169 24.0 -2422.6703566655547 -12640.83042762646 21.0 -763.3022654828828 -9161.252160282982 22.0
2626.9938320393844 -8264.101213298318 24.0 -2113.986667385754 -11511.956544873883 21.0 -1217.633992540042 -9053.97073071887
22.0 2222.51269251178 -9309.83159924451 24.0 -1567.1226440923222 -11414.999546701663 21.0 -899.1288173222788
-6904.428293620091 22.0 1776.205789762864 -9454.76858009264 24.0 -1909.5764138237384 -13738.003934185595 21.0
-626.5825170843596 -7460.981913592497 22.0 2548.7267951941685 -9647.67959918139 24.0 -2014.9833186677583 -11462.329693150868
21.0 -1091.21858482252 -9559.240165756795 22.0 2363.726529416273 -8427.456368488589 24.0 -1911.7824759999744
-12160.346375532885 21.0 -1094.5017587536795 -9402.653327880256 22.0 2857.958808170444 -9801.169233948374 24.0
-2018.1625885009328 -12852.763488825509 21.0 -1372.0481323926565 -11065.52559040203 22.0 1686.4492817329578 -10380.177726258598
24.0 -2116.014657258783 -12472.97676164909 21.0 -816.741039827358 -8527.66452554713 22.0 2203.871098120466
-10090.938130095628 24.0 -2376.9481815847703 -11644.921714667618 21.0 -540.0777651729093 -9668.124453793716 22.0
