data/input_files/rej_inputparams_1400.npy (npy, 14528 bytes, 1 tensors)

array f8 [200, 3, 3]
00000000: 0000 0000 0000 3540 582c 020e 23b4 87c0
00000010: 66c0 9dea 3201 c0c0 0000 0000 0000 3640
00000020: 821c 8875 2e2d a240 c72d 5dd1 b09a c4c0
00000030: 0000 0000 0000 3840 b1b1 6d04 867c a0c0
00000040: ae5c 012e 84e2 c6c0 0000 0000 0000 3540
00000050: f3e5 1218 25aa 8ec0 6528 e01f 58a6 c2c0
00000060: 0000 0000 0000 3640 3b89 ef20 087b a340
00000070: 7c61 8c11 35df c0c0 0000 0000 0000 3840
00000080: e4ee 237f 402b a0c0 984c 3475 1375 c8c0
00000090: 0000 0000 0000 3540 c139 fbf5 3f24 8fc0
000000a0: 1c53 db5d cc47 c2c0 0000 0000 0000 3640
000000b0: 8e70 11df a82b a640 ea54 633b 2aae c4c0
000000c0: 0000 0000 0000 3840 ca47 6e93 05ec a0c0
000000d0: 8e58 0f42 7eeb c6c0 0000 0000 0000 3540
000000e0: 231b 1537 3190 7dc0 6bac bbfe 8d8e c0c0
000000f0: 0000 0000 0000 3640 7d4f f82b 9ec0 a040
00000100: bd3c d60a 5acf c0c0 0000 0000 0000 3840
00000110: 3679 7d34 b843 9fc0 26ca a890 2375 c8c0
00000120: 0000 0000 0000 3540 cd2a b1cd fbcb 95c0
00000130: 243a 382a dd2c c3c0 0000 0000 0000 3640
00000140: b987 60e7 7d95 a340 c0ae fc89 0adb c2c0
00000150: 0000 0000 0000 3840 3f6a 4fa2 7f7f 9dc0
00000160: bc16 5a2f 3f61 c7c0 0000 0000 0000 3540
00000170: c0db 363a 4489 88c0 cc65 dc10 516b c2c0
00000180: 0000 0000 0000 3640 2c2e cb22 fd0f a240
00000190: eae5 842e 82f0 c0c0 0000 0000 0000 3840
000001a0: 10eb b18f daa3 a0c0 81da 710d eb93 c8c0
000001b0: 0000 0000 0000 3540 21da 9b8c 1a35 7ec0
000001c0: 22eb 2d16 9336 c1c0 0000 0000 0000 3640
000001d0: 764e 6fd1 fceb a240 8691 6ee1 0bc1 c1c0
000001e0: 0000 0000 0000 3840 0934 f24c ff0e a1c0
000001f0: dd04 4f90 030a c9c0 0000 0000 0000 3540
00000200: 43c1 54bf b800 85c0 2534 7de2 ee3f c1c0
00000210: 0000 0000 0000 3640 ca4e 0132 c016 a140
00000220: 665e 08a6 159d c1c0 0000 0000 0000 3840
00000230: 5d9e b3f1 39d3 9dc0 21af ac2d 59ce c6c0
00000240: 0000 0000 0000 3540 9768 61b3 336a 8ec0
00000250: 7660 c5f6 a25d bec0 0000 0000 0000 3640
00000260: bf39 91bb 13ef 9940 c045 1e39 a571 c2c0
00000270: 0000 0000 0000 3840 c599 6599 051c a1c0
00000280: d587 36f3 2bfc c7c0 0000 0000 0000 3540
00000290: eecb 0f13 495a 81c0 ec91 d1d4 74e3 c2c0
000002a0: 0000 0000 0000 3640 1214 0f74 1da1 a640
000002b0: 22e8 79fa a4b2 c1c0 0000 0000 0000 3840
000002c0: 9d5c 8e3d 5094 9dc0 8ddb 7962 00ea c6c0
000002d0: 0000 0000 0000 3540 2014 1553 a089 8cc0
000002e0: c3d4 3c69 2bc7 c3c0 0000 0000 0000 3640
000002f0: dd06 9a34 e2d9 a240 f6d5 79e2 4087 bec0
00000300: 0000 0000 0000 3840 e8ee 59fb 412b 9dc0
00000310: a2d5 cee1 9316 c7c0 0000 0000 0000 3540
00000320: 0dff 3c6b afea 80c0 e40e aa1e 7614 c1c0
00000330: 0000 0000 0000 3640 91e2 8917 4761 a340
00000340: bc7e caf9 d32e c2c0 0000 0000 0000 3840
00000350: e6e2 8855 6b85 99c0 e085 2327 061d c5c0
00000360: 0000 0000 0000 3540 c07a d3a7 11bc 3cc0
00000370: fa5c 148b dca8 c4c0 0000 0000 0000 3640
00000380: 6af0 d1a4 b490 a640 4aa9 aba2 765b c1c0
00000390: 0000 0000 0000 3840 1c97 f9a9 7789 9ec0
000003a0: 7ed9 8f70 f04c c6c0 0000 0000 0000 3540
000003b0: 61f5 516b 6f51 7ac0 9637 ffae 7cb2 bfc0
000003c0: 0000 0000 0000 3640 c852 a070 b432 9c40
000003d0: ddeb c64b 9be2 c2c0 0000 0000 0000 3840
000003e0: de60 5aaa f621 9bc0 9a7c 4df8 a36f c6c0
000003f0: 0000 0000 0000 3540 ab0e 1b9e 0337 93c0
00000400: 3824 d805 9001 c1c0 0000 0000 0000 3640
00000410: f503 02eb e1a6 a040 87ba ac84 7eaa c1c0
00000420: 0000 0000 0000 3840 b059 6379 5d88 a1c0
00000430: 5200 d932 73d2 c8c0 0000 0000 0000 3540
00000440: 1d25 8335 fc93 84c0 42c8 919d 3326 bdc0
00000450: 0000 0000 0000 3640 1c28 4b5d a594 a440
00000460: d2d9 2316 e855 c1c0 0000 0000 0000 3840
00000470: d173 e9b0 e870 a0c0 826b b53f ddec c8c0
00000480: 0000 0000 0000 3540 8a0a 1835 2541 88c0
00000490: 1e90 4c64 a443 c1c0 0000 0000 0000 3640
000004a0: cd3f 08f3 2429 a340 09e3 a2b2 40fb c1c0
000004b0: 0000 0000 0000 3840 b3e3 a207 1518 9ec0
000004c0: 7cdb 8460 49f4 c6c0 0000 0000 0000 3540
000004d0: c882 8755 bdb9 92c0 6e16 be52 32c1 c6c0
000004e0: 0000 0000 0000 3640 1de5 88ea cf4e a040
000004f0: c439 97d3 5d07 c2c0 0000 0000 0000 3840
00000500: eabd d6d4 99da 98c0 60d3 b69e 40d4 c8c0
00000510: 0000 0000 0000 3540 dd47 198c 3b5b 8ac0
00000520: 0967 92e6 bcb5 c2c0 0000 0000 0000 3640
00000530: 574f 8b41 2bfa a240 7766 4ad7 396e bfc0
00000540: 0000 0000 0000 3840 fd83 b19a afd6 9ec0
00000550: 0b31 6a2c 7b9d c9c0 0000 0000 0000 3540
00000560: 545d 4bad 019b 92c0 a61d 9a3e b5e3 c2c0
00000570: 0000 0000 0000 3640 635d 6581 32c3 a340
00000580: a56f 8835 5748 c2c0 0000 0000 0000 3840
00000590: baa7 9eda 4259 9ac0 f6b7 6bba b5d8 c5c0
000005a0: 0000 0000 0000 3540 dced 2298 0653 78c0
000005b0: 3ee7 daf7 0c3f c1c0 0000 0000 0000 3640
000005c0: d570 05c0 a6b2 a340 9413 1d8f 6708 c1c0
000005d0: 0000 0000 0000 3840 d105 44ef 9b21 a2c0
000005e0: 208a bb5c b0b9 c9c0 0000 0000 0000 3540
000005f0: 3c76 cd46 9c85 8ec0 170c 261e 2141 c1c0
00000600: 0000 0000 0000 3640 0e53 6c9b abbe a240
00000610: 7d74 3235 173b bfc0 0000 0000 0000 3840
00000620: 92fc 280d 8d32 9fc0 5ab7 691a 25ab c7c0
00000630: 0000 0000 0000 3540 2bed 7a9f ab1e 96c0
00000640: 0d4e f9e0 3b1c c1c0 0000 0000 0000 3640
00000650: 237a 6549 f556 a140 d994 44e0 3c49 c0c0
00000660: 0000 0000 0000 3840 e841 3a8c c0dd 9ec0
00000670: 8f2a 6bde e35f c7c0 0000 0000 0000 3540
00000680: c667 92bb a887 8bc0 2d7e 439e 942b bcc0
00000690: 0000 0000 0000 3640 a5ec 2e97 f1d1 a140
000006a0: e228 c94f 464e c1c0 0000 0000 0000 3840
000006b0: cb48 1989 0607 9dc0 271d 17cb 7185 c7c0
000006c0: 0000 0000 0000 3540 aff1 d75c 6674 7cc0
000006d0: eb93 8376 ffda c2c0 0000 0000 0000 3640
000006e0: cc50 a130 b0bd a440 7511 cdb8 3a2a bdc0
000006f0: 0000 0000 0000 3840 8ae7 9fa2 c23a a4c0
00000700: a821 f15b 7f1e c6c0 0000 0000 0000 3540
00000710: ffbf 9f7b 681d 8dc0 454e df8e 598f bec0
00000720: 0000 0000 0000 3640 9263 61e3 1393 a640
00000730: 09a2 2757 3873 c3c0 0000 0000 0000 3840
00000740: 8429 c4d9 08a6 9fc0 44c4 f2ff 8b2e c6c0
00000750: 0000 0000 0000 3540 0a54 d243 77bb 8bc0
00000760: 7e05 e58b 7966 c2c0 0000 0000 0000 3640
00000770: af44 9521 7393 a140 d603 b306 e863 c1c0
00000780: 0000 0000 0000 3840 8691 ff3a a92a a0c0
00000790: 79b9 2c9c f7cc c7c0 0000 0000 0000 3540
000007a0: 4d08 5990 a556 8ec0 c924 cac2 8263 bfc0
000007b0: 0000 0000 0000 3640 35f0 70c8 c34e a140
000007c0: 23f1 d32c 603a c1c0 0000 0000 0000 3840
000007d0: c67f f83f 20cb 9fc0 bdc2 1264 81af c7c0
000007e0: 0000 0000 0000 3540 8eb0 74a9 b19a 76c0
000007f0: e3a9 dd31 e760 c1c0 0000 0000 0000 3640
21.0 -758.5171165628226 -8194.397784918732 22.0 2326.5907404455947 -10549.381389281609 24.0 -2110.2617525367173
-11717.03265397096 21.0 -981.26811232342 -9548.688472766613 22.0 2493.515876279356 -8638.414598033523 24.0
-2069.6259700039973 -12522.15201429119 21.0 -996.5312308909416 -9359.5966142803 22.0 2837.829826874723 -10588.32993737837
24.0 -2166.010890432609 -11734.986390989532 21.0 -473.0120154213384 -8477.10933633727 22.0 2144.3089292141944
-8606.703455714853 24.0 -2000.9298877339584 -12522.277852152543 21.0 -1394.9959018404363 -9817.727850941075 22.0
2506.74590589196 -9654.082336030318 24.0 -1887.874642601833 -11970.493632565594 21.0 -785.1583141599476 -9430.633327054697
22.0 2311.9944060796606 -8673.017044651282 24.0 -2129.926877555794 -12583.836347800914 21.0 -483.3189817512485
-8813.149114360629 22.0 2421.993785360649 -9090.092817135865 24.0 -2183.498633927204 -12820.027841451049 21.0
-672.0902086850623 -8831.8662868981 22.0 2187.375381508701 -9018.1691294156 24.0 -1908.8065860810668 -11676.696706376564
21.0 -973.2752444849056 -7773.6365779266835 22.0 1659.7692701999183 -9443.290805610712 24.0 -2190.010935950299
-12280.343359772038 21.0 -555.2856808885679 -9670.912744709254 22.0 2896.557526084137 -9061.28889392695 24.0
-1893.078359817889 -11732.003005249217 21.0 -913.2032834669844 -10126.339149097335 22.0 2412.9418075688723 -7815.253455748307
24.0 -1866.8144353916232 -11821.155328611672 21.0 -541.3356537595115 -8744.922810799857 22.0 2480.638851460368
-9309.656060516245 24.0 -1633.3548184765327 -10810.048069420212 21.0 -28.734644402628646 -10577.72299437084 22.0
2888.3528199773764 -8886.926839311276 24.0 -1954.3668593405228 -11417.878435116956 21.0 -421.0897019578461 -8114.487045241423
22.0 1804.676210885098 -9669.213250031631 24.0 -1736.490884220278 -11487.281015096512 21.0 -1229.753532812853
-8707.125178353963 22.0 2131.44124609278 -9044.988423911169 24.0 -2244.182566742609 -12708.899989247471 21.0
-658.4981489415837 -7462.2016230691825 22.0 2634.322977398535 -8875.813175660474 24.0 -2104.4544747308614 -12761.728506734366
21.0 -776.1431676748482 -8839.284310884828 22.0 2452.572166688717 -9206.505451546533 24.0 -1926.0205369426228
-11752.573258025332 21.0 -1198.4348965810368 -11650.393150101616 22.0 2087.4060862331085 -9230.733019736486 24.0
-1590.6502259782233 -12712.504843571864 21.0 -843.4040758109146 -9579.475786495505 22.0 2429.0844844374037 -8046.225941324249
24.0 -1973.6714885460672 -13114.96229293246 21.0 -1190.7516376281465 -9671.41597296188 22.0 2529.5986434628007
-9360.681321196093 24.0 -1686.3152870931503 -11185.419751610589 21.0 -389.1891099323673 -8830.101313937103 22.0
2521.325683755897 -8720.809054979858 24.0 -2320.804559827528 -13171.377829973644 21.0 -976.7013069202144 -8834.258732562927
22.0 2399.335170159472 -7995.090655473175 24.0 -1996.6377455143124 -12118.289868559386 21.0 -1415.667600556112
-8760.467803156958 22.0 2219.479075595054 -8338.475594113044 24.0 -1975.4380349257208 -11967.780225177556 21.0
-880.9573890149993 -7211.580539911561 22.0 2280.97185656203 -8860.549309868777 24.0 -1857.7563823652915 -12042.889010323748
21.0 -455.2749908862415 -9653.995804259515 22.0 2654.8441210185174 -7466.229382340204 24.0 -2589.380146977438
-11324.99499334472 21.0 -931.676017044112 -7823.349836308106 22.0 2889.5388441499754 -9958.440159753913 24.0
-2025.5086432123508 -11357.093748422463 21.0 -887.4332348281762 -9420.949581744844 22.0 2249.7248655935614 -8903.812704445718
24.0 -2069.330528246416 -12185.934453573764 21.0 -970.8308417277964 -8035.510784753781 22.0 2215.38238861973
-8820.751368038886 24.0 -2034.781494028853 -12127.010866494262 21.0 -361.66837449628736 -8897.80620928569 22.0
