data/input_files/training_params_280.npy (npy, 1408 bytes, 1 tensors)

array f8 [20, 8]
-10252.5 -948.5 -8477.5 -599.0 -8947.5 2613.0 -11897.5 -1717.0
-10587.5 -753.5 -9032.5 -1093.0 -8907.5 2567.0 -11812.5 -1747.0
-9837.5 -486.49999999999994 -8732.5 -805.0 -8427.5 1987.0 -12117.5 -2317.0
-10692.5 -120.5 -9097.5 -396.9999999999999 -8752.5 2019.0 -12777.5 -2097.0
-9732.5 -804.5 -8987.5 -737.0 -8567.5 2657.0 -12947.5 -2349.0
-10652.5 26.5 -9292.5 -435.0 -9757.5 2229.0 -11287.5 -2377.0
-10337.5 -840.5 -10117.5 -851.0 -9557.5 2093.0 -12347.5 -2059.0
-10307.5 -177.5 -8217.5 -463.0 -9812.5 2681.0 -11847.5 -1839.0
-9277.5 -225.4999999999999 -9127.5 -991.0 -9607.5 2065.0 -12222.5 -1921.0
-9537.5 113.5 -8517.5 -977.0 -9622.5 2407.0 -11522.5 -2171.0
-9097.5 -144.5 -9102.5 -769.0 -9402.5 2417.0 -11092.5 -2035.0
-9007.5 5.5 -8372.5 -1129.0 -8162.5 2689.0 -12377.5 -2207.0
-10657.5 137.5 -8382.5 -963.0 -8642.5 2013.0 -11417.5 -1795.0
-9272.5 -366.5 -8747.5 -517.0 -8787.5 2339.0 -12592.5 -1845.0
-10802.5 125.5 -9497.5 -1027.0 -9567.5 2159.0 -12897.5 -1937.0
-9342.5 -939.5 -9692.5 -1001.0 -8102.5 2087.0 -12802.5 -2167.0
-9932.5 -426.5 -9932.5 -953.0 -8562.5 2261.0 -12972.5 -1903.0
-9107.5 -456.50000000000006 -9037.5 -543.0 -8387.5 2175.0 -12932.5 -2183.0
-10637.5 -258.5 -9707.5 -879.0 -9302.5 2547.0 -12907.5 -2085.0
-10702.5 -603.5 -9957.5 -588.9999999999999 -9497.5 2059.0 -11132.5 -2215.0
00000000: 0000 0000 4006 c4c0 0000 0000 00a4 8dc0
00000010: 0000 0000 c08e c0c0 0000 0000 00b8 82c0
00000020: 0000 0000 c079 c1c0 0000 0000 006a a440
00000030: 0000 0000 c03c c7c0 0000 0000 00d4 9ac0
00000040: 0000 0000 c0ad c4c0 0000 0000 008c 87c0
00000050: 0000 0000 40a4 c1c0 0000 0000 0014 91c0
00000060: 0000 0000 c065 c1c0 0000 0000 000e a440
00000070: 0000 0000 4012 c7c0 0000 0000 004c 9bc0
00000080: 0000 0000 c036 c3c0 ffff ffff ff67 7ec0
00000090: 0000 0000 400e c1c0 0000 0000 0028 89c0
000000a0: 0000 0000 c075 c0c0 0000 0000 000c 9f40
000000b0: 0000 0000 c0aa c7c0 0000 0000 001a a2c0
000000c0: 0000 0000 40e2 c4c0 0000 0000 0020 5ec0
000000d0: 0000 0000 c0c4 c1c0 feff ffff ffcf 78c0
000000e0: 0000 0000 4018 c1c0 0000 0000 008c 9f40
000000f0: 0000 0000 c0f4 c8c0 0000 0000 0062 a0c0
00000100: 0000 0000 4002 c3c0 0000 0000 0024 89c0
00000110: 0000 0000 c08d c1c0 0000 0000 0008 87c0
00000120: 0000 0000 c0bb c0c0 0000 0000 00c2 a440
00000130: 0000 0000 c049 c9c0 0000 0000 005a a2c0
00000140: 0000 0000 40ce c4c0 0000 0000 0080 3a40
00000150: 0000 0000 4026 c2c0 0000 0000 0030 7bc0
00000160: 0000 0000 c00e c3c0 0000 0000 006a a140
00000170: 0000 0000 c00b c6c0 0000 0000 0092 a2c0
00000180: 0000 0000 c030 c4c0 0000 0000 0044 8ac0
00000190: 0000 0000 c0c2 c3c0 0000 0000 0098 8ac0
000001a0: 0000 0000 c0aa c2c0 0000 0000 005a a040
000001b0: 0000 0000 c01d c8c0 0000 0000 0016 a0c0
000001c0: 0000 0000 c021 c4c0 0000 0000 0030 66c0
000001d0: 0000 0000 c00c c0c0 0000 0000 00f0 7cc0
000001e0: 0000 0000 402a c3c0 0000 0000 00f2 a440
000001f0: 0000 0000 c023 c7c0 0000 0000 00bc 9cc0
00000200: 0000 0000 c01e c2c0 fcff ffff ff2f 6cc0
00000210: 0000 0000 c0d3 c1c0 0000 0000 00f8 8ec0
00000220: 0000 0000 c0c3 c2c0 0000 0000 0022 a040
00000230: 0000 0000 40df c7c0 0000 0000 0004 9ec0
00000240: 0000 0000 c0a0 c2c0 0000 0000 0060 5c40
00000250: 0000 0000 c0a2 c0c0 0000 0000 0088 8ec0
00000260: 0000 0000 40cb c2c0 0000 0000 00ce a240
00000270: 0000 0000 4081 c6c0 0000 0000 00f6 a0c0
00000280: 0000 0000 c0c4 c1c0 0000 0000 0010 62c0
00000290: 0000 0000 40c7 c1c0 0000 0000 0008 88c0
000002a0: 0000 0000 405d c2c0 0000 0000 00e2 a240
000002b0: 0000 0000 40aa c5c0 0000 0000 00cc 9fc0
000002c0: 0000 0000 c097 c1c0 0000 0000 0000 1640
000002d0: 0000 0000 405a c0c0 0000 0000 00a4 91c0
000002e0: 0000 0000 80e2 bfc0 0000 0000 0002 a540
000002f0: 0000 0000 c02c c8c0 0000 0000 003e a1c0
00000300: 0000 0000 c0d0 c4c0 0000 0000 0030 6140
00000310: 0000 0000 405f c0c0 0000 0000 0018 8ec0
00000320: 0000 0000 40e1 c0c0 0000 0000 0074 9f40
00000330: 0000 0000 c04c c6c0 0000 0000 000c 9cc0
00000340: 0000 0000 401c c2c0 0000 0000 00e8 76c0
00000350: 0000 0000 c015 c1c0 0000 0000 0028 80c0
00000360: 0000 0000 c029 c1c0 0000 0000 0046 a240
00000370: 0000 0000 4098 c8c0 0000 0000 00d4 9cc0
00000380: 0000 0000 4019 c5c0 0000 0000 0060 5f40
00000390: 0000 0000 c08c c2c0 0000 0000 000c 90c0
000003a0: 0000 0000 c0af c2c0 0000 0000 00de a040
000003b0: 0000 0000 c030 c9c0 0000 0000 0044 9ec0
000003c0: 0000 0000 403f c2c0 0000 0000 005c 8dc0
000003d0: 0000 0000 40ee c2c0 0000 0000 0048 8fc0
000003e0: 0000 0000 80a6 bfc0 0000 0000 004e a040
000003f0: 0000 0000 4001 c9c0 0000 0000 00ee a0c0
00000400: 0000 0000 4066 c3c0 0000 0000 00a8 7ac0
00000410: 0000 0000 4066 c3c0 0000 0000 00c8 8dc0
00000420: 0000 0000 40b9 c0c0 0000 0000 00aa a140
00000430: 0000 0000 4056 c9c0 0000 0000 00bc 9dc0
00000440: 0000 0000 c0c9 c1c0 0100 0000 0088 7cc0
00000450: 0000 0000 c0a6 c1c0 0000 0000 00f8 80c0
00000460: 0000 0000 c061 c0c0 0000 0000 00fe a040
00000470: 0000 0000 4042 c9c0 0000 0000 000e a1c0
00000480: 0000 0000 c0c6 c4c0 0000 0000 0028 70c0
00000490: 0000 0000 c0f5 c2c0 0000 0000 0078 8bc0
000004a0: 0000 0000 402b c2c0 0000 0000 00e6 a340
000004b0: 0000 0000 c035 c9c0 0000 0000 004a a0c0
000004c0: 0000 0000 40e7 c4c0 0000 0000 00dc 82c0
000004d0: 0000 0000 c072 c3c0 ffff ffff ff67 82c0
000004e0: 0000 0000 c08c c2c0 0000 0000 0016 a040
000004f0: 0000 0000 40be c5c0 0000 0000 004e a1c0
