data/input_files/training_params_60.npy (npy, 768 bytes, 1 tensors)

array f8 [10, 8]
00000000: 0000 0000 80d7 c1c0 0000 0000 0061 a540
00000010: 0000 0000 80b5 c0c0 0000 0000 807e b340
00000020: 0000 0000 80d1 c2c0 0000 0000 80c2 b940
00000030: 0000 0000 8062 c8c0 0000 0000 80a7 b440
00000040: 0000 0000 8040 c2c0 0000 0000 0061 aa40
00000050: 0000 0000 8033 c0c0 0000 0000 8093 b240
00000060: 0000 0000 80c2 c2c0 0000 0000 80f8 ba40
00000070: 0000 0000 803a c8c0 0000 0000 8012 b340
00000080: 0000 0000 80fa c1c0 0000 0000 0013 a840
00000090: 0000 0000 8030 c3c0 0000 0000 80d9 b240
000000a0: 0000 0000 80ea c2c0 0000 0000 80ad ba40
000000b0: 0000 0000 8009 c7c0 0000 0000 80a9 b240
000000c0: 0000 0000 80f9 c2c0 0000 0000 00cb a440
000000d0: 0000 0000 8026 c3c0 0000 0000 80c0 b240
000000e0: 0000 0000 8088 c0c0 0000 0000 807a bb40
000000f0: 0000 0000 800d c8c0 0000 0000 80f8 b340
00000100: 0000 0000 807b c3c0 0000 0000 00ed aa40
00000110: 0000 0000 80fb c0c0 0000 0000 80f8 b140
00000120: 0000 0000 804b c1c0 0000 0000 8045 b940
00000130: 0000 0000 80ba c5c0 0000 0000 80fc b440
00000140: 0000 0000 8039 c4c0 0000 0000 0009 a840
00000150: 0000 0000 80c1 c3c0 0000 0000 8026 b140
00000160: 0000 0000 8062 c3c0 0000 0000 80f4 b940
00000170: 0000 0000 8068 c7c0 0000 0000 80bd b240
00000180: 0000 0000 80bb c4c0 0000 0000 007b a940
00000190: 0000 0000 8086 c2c0 0000 0000 007d af40
000001a0: 0000 0000 805b c0c0 0000 0000 80fd ba40
000001b0: 0000 0000 8092 c5c0 0000 0000 80a2 b440
000001c0: 0000 0000 80de c4c0 0000 0000 0083 ab40
000001d0: 0000 0000 8047 c0c0 0000 0000 8088 b340
000001e0: 0000 0000 800b c0c0 0000 0000 802c b940
000001f0: 0000 0000 809c c5c0 0000 0000 80c2 b240
00000200: 0000 0000 8002 c4c0 0000 0000 0051 a640
00000210: 0000 0000 8082 c1c0 0000 0000 8045 b040
00000220: 0000 0000 80f0 c1c0 0000 0000 8081 b940
00000230: 0000 0000 8002 c9c0 0000 0000 809a b240
00000240: 0000 0000 8003 c3c0 0000 0000 0029 ab40
00000250: 0000 0000 8074 c0c0 0000 0000 809d b240
00000260: 0000 0000 8015 c0c0 0000 0000 800c bb40
00000270: 0000 0000 806c c8c0 0000 0000 800d b340
-9135.0 2736.5 -8555.0 4990.5 -9635.0 6594.5 -12485.0 5287.5
-9345.0 3376.5 -8295.0 4755.5 -9605.0 6904.5 -12405.0 4882.5
-9205.0 3081.5 -9825.0 4825.5 -9685.0 6829.5 -11795.0 4777.5
-9715.0 2661.5 -9805.0 4800.5 -8465.0 7034.5 -12315.0 5112.5
-9975.0 3446.5 -8695.0 4600.5 -8855.0 6469.5 -11125.0 5372.5
-10355.0 3076.5 -10115.0 4390.5 -9925.0 6644.5 -11985.0 4797.5
-10615.0 3261.5 -9485.0 4030.5 -8375.0 6909.5 -11045.0 5282.5
-10685.0 3521.5 -8335.0 5000.5 -8215.0 6444.5 -11065.0 4802.5
-10245.0 2856.5 -8965.0 4165.5 -9185.0 6529.5 -12805.0 4762.5
-9735.0 3476.5 -8425.0 4765.5 -8235.0 6924.5 -12505.0 4877.5
