data/input_files/training_params_380.npy (npy, 1408 bytes, 1 tensors)

array f8 [20, 8]
000000 00 00 00 00 40 3c c5 c0 00 00 00 00 00 60 51 c0
       -10872.5 -69.5
000010 00 00 00 00 40 5e c1 c0 00 00 00 00 00 d0 7b c0
       -8892.5 -445.0
000020 00 00 00 00 40 96 c0 c0 00 00 00 00 00 7e a2 40
       -8492.5 2367.0
000030 00 00 00 00 c0 98 c5 c0 00 00 00 00 00 8e a2 c0
       -11057.5 -2375.0
000040 00 00 00 00 c0 3a c4 c0 00 00 00 00 00 d8 74 c0
       -10357.5 -333.5
000050 00 00 00 00 40 7b c2 c0 00 00 00 00 00 f8 8b c0
       -9462.5 -895.0
000060 00 00 00 00 40 16 c3 c0 00 00 00 00 00 1e a4 40
       -9772.5 2575.0
000070 00 00 00 00 c0 84 c5 c0 00 00 00 00 00 82 a1 c0
       -11017.5 -2241.0
000080 00 00 00 00 c0 2d c2 c0 00 00 00 00 00 34 85 c0
       -9307.5 -678.5
000090 00 00 00 00 40 2f c3 c0 00 00 00 00 00 24 91 c0
       -9822.5 -1097.0
0000a0 00 00 00 00 40 d1 c1 c0 00 00 00 00 00 7e a3 40
       -9122.5 2495.0
0000b0 00 00 00 00 c0 dc c7 c0 00 00 00 00 00 54 9b c0
       -12217.5 -1749.0
0000c0 00 00 00 00 40 cf c3 c0 00 00 00 00 00 fc 86 c0
       -10142.5 -735.5
0000d0 00 00 00 00 c0 4d c0 c0 00 00 00 00 00 88 8c c0
       -8347.5 -913.0
0000e0 00 00 00 00 c0 a1 c1 c0 00 00 00 00 00 4e a5 40
       -9027.5 2727.0
0000f0 00 00 00 00 40 af c5 c0 00 00 00 00 00 ca a0 c0
       -11102.5 -2149.0
000100 00 00 00 00 40 e8 c3 c0 f8 ff ff ff ff df 58 c0
       -10192.5 -99.49999999999989
000110 00 00 00 00 c0 f0 c2 c0 00 00 00 00 00 38 80 c0
       -9697.5 -519.0
000120 00 00 00 00 c0 4b c2 c0 00 00 00 00 00 8a a1 40
       -9367.5 2245.0
000130 00 00 00 00 c0 59 c8 c0 00 00 00 00 00 52 a0 c0
       -12467.5 -2089.0
000140 00 00 00 00 40 b1 c3 c0 00 00 00 00 00 98 72 c0
       -10082.5 -297.5
000150 00 00 00 00 40 ca c3 c0 00 00 00 00 00 a8 8b c0
       -10132.5 -885.0
000160 00 00 00 00 40 7a c3 c0 00 00 00 00 00 ae a4 40
       -9972.5 2647.0
000170 00 00 00 00 40 54 c6 c0 00 00 00 00 00 1c 9c c0
       -11432.5 -1799.0
000180 00 00 00 00 c0 73 c2 c0 00 00 00 00 00 cc 86 c0
       -9447.5 -729.5
000190 00 00 00 00 40 43 c3 c0 00 00 00 00 00 98 81 c0
       -9862.5 -563.0
0001a0 00 00 00 00 c0 34 c0 c0 00 00 00 00 00 d2 a3 40
       -8297.5 2537.0
0001b0 00 00 00 00 40 89 c8 c0 00 00 00 00 00 e4 9d c0
       -12562.5 -1913.0
0001c0 00 00 00 00 c0 80 c4 c0 00 00 00 00 00 90 69 c0
       -10497.5 -204.5
0001d0 00 00 00 00 c0 1a c1 c0 00 00 00 00 00 e8 89 c0
       -8757.5 -829.0
0001e0 00 00 00 00 c0 55 c2 c0 00 00 00 00 00 64 9f 40
       -9387.5 2009.0
0001f0 00 00 00 00 40 58 c7 c0 00 00 00 00 00 84 9f c0
       -11952.5 -2017.0
000200 00 00 00 00 40 25 c3 c0 00 00 00 00 00 00 04 40
       -9802.5 2.5
000210 00 00 00 00 c0 97 c1 c0 00 00 00 00 00 94 92 c0
       -9007.5 -1189.0
000220 00 00 00 00 40 a8 c2 c0 00 00 00 00 00 76 a0 40
       -9552.5 2107.0
000230 00 00 00 00 40 c0 c8 c0 00 00 00 00 00 f2 a2 c0
       -12672.5 -2425.0
000240 00 00 00 00 c0 d8 c1 c0 00 00 00 00 00 20 57 40
       -9137.5 92.5
000250 00 00 00 00 40 d5 c2 c0 00 00 00 00 00 f8 86 c0
       -9642.5 -735.0
000260 00 00 00 00 c0 7a c0 c0 00 00 00 00 00 ba a4 40
       -8437.5 2653.0
000270 00 00 00 00 c0 8d c6 c0 00 00 00 00 00 ca a2 c0
       -11547.5 -2405.0
000280 00 00 00 00 c0 9c c1 c0 00 00 00 00 00 e0 57 40
       -9017.5 95.5
000290 00 00 00 00 40 f8 c2 c0 00 00 00 00 00 d0 7e c0
       -9712.5 -493.0
0002a0 00 00 00 00 c0 de c0 c0 00 00 00 00 00 22 a5 40
       -8637.5 2705.0
0002b0 00 00 00 00 c0 bb c5 c0 00 00 00 00 00 1e a2 c0
       -11127.5 -2319.0
0002c0 00 00 00 00 c0 c3 c2 c0 00 00 00 00 00 3c 80 c0
       -9607.5 -519.5
0002d0 00 00 00 00 c0 86 c3 c0 00 00 00 00 00 a8 87 c0
       -9997.5 -757.0
0002e0 00 00 00 00 40 6c c2 c0 00 00 00 00 00 22 a1 40
       -9432.5 2193.0
0002f0 00 00 00 00 40 2b c7 c0 00 00 00 00 00 c6 a0 c0
       -11862.5 -2147.0
000300 00 00 00 00 c0 25 c5 c0 00 00 00 00 00 b8 79 c0
       -10827.5 -411.5
000310 00 00 00 00 40 32 c0 c0 00 00 00 00 00 1c 90 c0
       -8292.5 -1031.0
000320 00 00 00 00 c0 4a c3 c0 00 00 00 00 00 da a0 40
       -9877.5 2157.0
000330 00 00 00 00 40 a0 c5 c0 00 00 00 00 00 dc 9a c0
       -11072.5 -1719.0
000340 00 00 00 00 c0 c2 c3 c0 00 00 00 00 00 dc 85 c0
       -10117.5 -699.5
000350 00 00 00 00 c0 9a c3 c0 00 00 00 00 00 38 8f c0
       -10037.5 -999.0
000360 00 00 00 00 40 1c c2 c0 00 00 00 00 00 46 a5 40
       -9272.5 2723.0
000370 00 00 00 00 40 d7 c5 c0 00 00 00 00 00 22 a0 c0
       -11182.5 -2065.0
000380 00 00 00 00 c0 2a c5 c0 00 00 00 00 00 80 31 40
       -10837.5 17.5
000390 00 00 00 00 40 c1 c2 c0 00 00 00 00 00 78 8e c0
       -9602.5 -975.0
0003a0 00 00 00 00 c0 47 c1 c0 00 00 00 00 00 1a a1 40
       -8847.5 2189.0
0003b0 00 00 00 00 40 ff c5 c0 00 00 00 00 00 aa a2 c0
       -11262.5 -2389.0
0003c0 00 00 00 00 c0 ab c1 c0 00 00 00 00 00 90 6c c0
       -9047.5 -228.5
0003d0 00 00 00 00 c0 65 c1 c0 00 00 00 00 00 48 8e c0
       -8907.5 -969.0
0003e0 00 00 00 00 80 ba bf c0 00 00 00 00 00 96 a5 40
       -8122.5 2763.0
0003f0 00 00 00 00 40 7c c6 c0 00 00 00 00 00 fe a1 c0
       -11512.5 -2303.0
000400 00 00 00 00 40 0f c5 c0 00 00 00 00 00 f0 67 40
       -10782.5 191.5
000410 00 00 00 00 40 fa c0 c0 00 00 00 00 00 88 81 c0
       -8692.5 -561.0
000420 00 00 00 00 c0 f6 c1 c0 00 00 00 00 00 d2 a2 40
       -9197.5 2409.0
000430 00 00 00 00 40 77 c6 c0 00 00 00 00 00 0c 9b c0
       -11502.5 -1731.0
000440 00 00 00 00 40 f4 c1 c0 00 00 00 00 00 10 69 40
       -9192.5 200.5
000450 00 00 00 00 40 0c c3 c0 00 00 00 00 00 88 8a c0
       -9752.5 -849.0
000460 00 00 00 00 40 31 c1 c0 00 00 00 00 00 92 a1 40
       -8802.5 2249.0
000470 00 00 00 00 40 7f c8 c0 00 00 00 00 00 94 9e c0
       -12542.5 -1957.0
000480 00 00 00 00 c0 54 c3 c0 00 00 00 00 00 d0 6c 40
       -9897.5 230.5
000490 00 00 00 00 c0 b4 c2 c0 00 00 00 00 00 84 90 c0
       -9577.5 -1057.0
0004a0 00 00 00 00 80 f1 bf c0 00 00 00 00 00 d6 a3 40
       -8177.5 2539.0
0004b0 00 00 00 00 40 8f c7 c0 00 00 00 00 00 2e a3 c0
       -12062.5 -2455.0
0004c0 00 00 00 00 40 c1 c2 c0 00 00 00 00 00 e4 80 c0
       -9602.5 -540.5
0004d0 00 00 00 00 40 e3 c3 c0 00 00 00 00 00 18 86 c0
       -10182.5 -707.0
0004e0 00 00 00 00 c0 e7 c1 c0 00 00 00 00 00 82 a3 40
       -9167.5 2497.0
0004f0 00 00 00 00 c0 d2 c7 c0 00 00 00 00 00 0e a0 c0
       -12197.5 -2055.0
