data/input_files/training_params_30.npy (npy, 768 bytes, 1 tensors)

array f8 [10, 8]
-9125.0 3556.5 -8725.0 4890.5 -9225.0 7039.5 -11465.0 4672.5
-9925.0 3266.5 -8305.0 5010.5 -8605.0 6779.5 -12015.0 4917.5
-9405.0 3271.5 -9525.0 4655.5 -9505.0 6689.5 -12795.0 5422.5
-10705.0 3016.5 -9415.0 4240.5 -9805.0 7129.5 -11685.0 4767.5
-9785.0 3241.5 -8625.0 4070.5 -8305.0 7124.5 -11575.0 4892.5
-9955.0 3396.5 -8275.0 4530.5 -9995.0 7254.5 -11485.0 4962.5
-10505.0 3166.5 -9985.0 4185.5 -9245.0 6679.5 -11205.0 4792.5
-10955.0 2971.5 -9975.0 4075.5 -8425.0 6874.5 -11505.0 4607.5
-10885.0 2791.5 -8535.0 4115.5 -9145.0 6574.5 -12615.0 4557.5
-10075.0 3551.5 -9425.0 4455.5 -8835.0 6699.5 -12095.0 5497.5
00000000: 0000 0000 80d2 c1c0 0000 0000 00c9 ab40
00000010: 0000 0000 800a c1c0 0000 0000 801a b340
00000020: 0000 0000 8004 c2c0 0000 0000 807f bb40
00000030: 0000 0000 8064 c6c0 0000 0000 8040 b240
00000040: 0000 0000 8062 c3c0 0000 0000 0085 a940
00000050: 0000 0000 8038 c0c0 0000 0000 8092 b340
00000060: 0000 0000 80ce c0c0 0000 0000 807b ba40
00000070: 0000 0000 8077 c7c0 0000 0000 8035 b340
00000080: 0000 0000 805e c2c0 0000 0000 008f a940
00000090: 0000 0000 809a c2c0 0000 0000 802f b240
000000a0: 0000 0000 8090 c2c0 0000 0000 8021 ba40
000000b0: 0000 0000 80fd c8c0 0000 0000 802e b540
000000c0: 0000 0000 80e8 c4c0 0000 0000 0091 a740
000000d0: 0000 0000 8063 c2c0 0000 0000 8090 b040
000000e0: 0000 0000 8026 c3c0 0000 0000 80d9 bb40
000000f0: 0000 0000 80d2 c6c0 0000 0000 809f b240
00000100: 0000 0000 801c c3c0 0000 0000 0053 a940
00000110: 0000 0000 80d8 c0c0 0000 0000 00cd af40
00000120: 0000 0000 8038 c0c0 0000 0000 80d4 bb40
00000130: 0000 0000 809b c6c0 0000 0000 801c b340
00000140: 0000 0000 8071 c3c0 0000 0000 0089 aa40
00000150: 0000 0000 8029 c0c0 0000 0000 80b2 b140
00000160: 0000 0000 8085 c3c0 0000 0000 8056 bc40
00000170: 0000 0000 806e c6c0 0000 0000 8062 b340
00000180: 0000 0000 8084 c4c0 0000 0000 00bd a840
00000190: 0000 0000 8080 c3c0 0000 0000 8059 b040
000001a0: 0000 0000 800e c2c0 0000 0000 8017 ba40
000001b0: 0000 0000 80e2 c5c0 0000 0000 80b8 b240
000001c0: 0000 0000 8065 c5c0 0000 0000 0037 a740
000001d0: 0000 0000 807b c3c0 0000 0000 00d7 af40
000001e0: 0000 0000 8074 c0c0 0000 0000 80da ba40
000001f0: 0000 0000 8078 c6c0 0000 0000 80ff b140
00000200: 0000 0000 8042 c5c0 0000 0000 00cf a540
00000210: 0000 0000 80ab c0c0 0000 0000 8013 b040
00000220: 0000 0000 80dc c1c0 0000 0000 80ae b940
00000230: 0000 0000 80a3 c8c0 0000 0000 80cd b140
00000240: 0000 0000 80ad c3c0 0000 0000 00bf ab40
00000250: 0000 0000 8068 c2c0 0000 0000 8067 b140
00000260: 0000 0000 8041 c1c0 0000 0000 802b ba40
00000270: 0000 0000 809f c7c0 0000 0000 8079 b540
