data/input_files/TrainingsParametersKinematicModelAlpsFault1-4.npy (npy, 12928 bytes, 1 tensors)

array f8 [200, 8]
0	0xc0c2cc8000000000	-9625.0
1	0x40a7d70000000000	3051.5
2	0xc0c3998000000000	-10035.0
3	0x40b2f28000000000	4850.5
4	0xc0c2188000000000	-9265.0
5	0x40bbc08000000000	7104.5
6	0xc0c62d8000000000	-11355.0
7	0x40b3538000000000	4947.5
8	0xc0c3498000000000	-9875.0
9	0x40aae30000000000	3441.5
10	0xc0c0888000000000	-8465.0
11	0x40b10d8000000000	4365.5
12	0xc0c29f8000000000	-9535.0
13	0x40bb898000000000	7049.5
14	0xc0c7548000000000	-11945.0
15	0x40b1a58000000000	4517.5
16	0xc0c3128000000000	-9765.0
17	0x40aa390000000000	3356.5
18	0xc0c14b8000000000	-8855.0
19	0x40b1358000000000	4405.5
20	0xc0c18c8000000000	-8985.0
21	0x40bb028000000000	6914.5
22	0xc0c6a58000000000	-11595.0
23	0x40b5298000000000	5417.5
24	0xc0c2318000000000	-9315.0
25	0x40aa430000000000	3361.5
26	0xc0c1288000000000	-8785.0
27	0x40b0ef8000000000	4335.5
28	0xc0c0338000000000	-8295.0
29	0x40bb168000000000	6934.5
30	0xc0c8e98000000000	-12755.0
31	0x40b2728000000000	4722.5
32	0xc0c4e38000000000	-10695.0
33	0x40aaf70000000000	3451.5
34	0xc0c23b8000000000	-9335.0
35	0x40b1e98000000000	4585.5
36	0xc0c1eb8000000000	-9175.0
37	0x40babc8000000000	6844.5
38	0xc0c5d38000000000	-11175.0
39	0x40b4438000000000	5187.5
40	0xc0c4938000000000	-10535.0
41	0x40a9cb0000000000	3301.5
42	0xc0c2958000000000	-9515.0
43	0x40b0228000000000	4130.5
44	0xc0c3308000000000	-9825.0
45	0x40bb848000000000	7044.5
46	0xc0c9398000000000	-12915.0
47	0x40b3e48000000000	5092.5
48	0xc0c3178000000000	-9775.0
49	0x40a7050000000000	2946.5
50	0xc0c2728000000000	-9445.0
51	0x40b0818000000000	4225.5
52	0xc0c0658000000000	-8395.0
53	0x40bac18000000000	6849.5
54	0xc0c6b98000000000	-11635.0
55	0x40b21d8000000000	4637.5
56	0xc0c3a38000000000	-10055.0
57	0x40aacf0000000000	3431.5
58	0xc0c3a38000000000	-10055.0
59	0x40b1f38000000000	4595.5
60	0xc0c1468000000000	-8845.0
61	0x40b95e8000000000	6494.5
62	0xc0c6e68000000000	-11725.0
63	0x40b24f8000000000	4687.5
64	0xc0c35d8000000000	-9915.0
65	0x40a4a30000000000	2641.5
66	0xc0c0e78000000000	-8655.0
67	0x40b38d8000000000	5005.5
68	0xc0c26d8000000000	-9435.0
69	0x40bb1b8000000000	6939.5
70	0xc0c9208000000000	-12865.0
71	0x40b23b8000000000	4667.5
72	0xc0c1af8000000000	-9055.0
73	0x40a9c10000000000	3296.5
74	0xc0c0428000000000	-8325.0
75	0x40b2898000000000	4745.5
76	0xc0bf630000000000	-8035.0
77	0x40b99a8000000000	6554.5
78	0xc0c5b58000000000	-11115.0
79	0x40b4848000000000	5252.5
80	0xc0c50b8000000000	-10775.0
81	0x40a9ad0000000000	3286.5
82	0xc0c3448000000000	-9865.0
83	0x40b3a18000000000	5025.5
84	0xc0c2b88000000000	-9585.0
85	0x40b9728000000000	6514.5
86	0xc0c5c48000000000	-11145.0
87	0x40b42f8000000000	5167.5
88	0xc0c3b78000000000	-10095.0
89	0x40a4350000000000	2586.5
90	0xc0c27c8000000000	-9465.0
91	0x40b2578000000000	4695.5
92	0xc0c0c98000000000	-8595.0
93	0x40ba948000000000	6804.5
94	0xc0c6968000000000	-11565.0
95	0x40b44d8000000000	5197.5
96	0xc0c4438000000000	-10375.0
97	0x40ab650000000000	3506.5
98	0xc0c1eb8000000000	-9175.0
99	0x40b0db8000000000	4315.5
100	0xc0bf950000000000	-8085.0
101	0x40bc158000000000	7189.5
102	0xc0c6c38000000000	-11655.0
103	0x40b4d48000000000	5332.5
104	0xc0c36c8000000000	-9945.0
105	0x40a6ab0000000000	2901.5
106	0xc0c18c8000000000	-8985.0
107	0x40b1088000000000	4360.5
108	0xc0c17d8000000000	-8955.0
109	0x40bc338000000000	7219.5
110	0xc0c7cc8000000000	-12185.0
111	0x40b4578000000000	5207.5
112	0xc0c2138000000000	-9255.0
113	0x40aa930000000000	3401.5
114	0xc0c2548000000000	-9385.0
115	0x40b05e8000000000	4190.5
116	0xc0c28b8000000000	-9495.0
117	0x40b8b48000000000	6324.5
118	0xc0c93e8000000000	-12925.0
119	0x40b3da8000000000	5082.5
120	0xc0c2228000000000	-9285.0
121	0x40a4850000000000	2626.5
122	0xc0c0108000000000	-8225.0
123	0x40b0b88000000000	4280.5
124	0xc0c3588000000000	-9905.0
125	0x40b90e8000000000	6414.5
126	0xc0c7e58000000000	-12235.0
127	0x40b47f8000000000	5247.5
128	0xc0c39e8000000000	-10045.0
129	0x40ab470000000000	3491.5
130	0xc0c0158000000000	-8235.0
131	0x40b1178000000000	4375.5
132	0xc0c0bf8000000000	-8575.0
133	0x40bb4d8000000000	6989.5
134	0xc0c68c8000000000	-11545.0
135	0x40b4168000000000	5142.5
136	0xc0c38f8000000000	-10015.0
137	0x40a6010000000000	2816.5
138	0xc0c38f8000000000	-10015.0
139	0x40b0278000000000	4135.5
140	0xc0c0c48000000000	-8585.0
141	0x40ba4e8000000000	6734.5
142	0xc0c7ef8000000000	-12255.0
143	0x40b3d08000000000	5072.5
144	0xc0c4898000000000	-10515.0
145	0x40a4530000000000	2601.5
146	0xc0c2098000000000	-9235.0
147	0x40b0048000000000	4100.5
148	0xc0c30d8000000000	-9755.0
149	0x40bb758000000000	7029.5
150	0xc0c7228000000000	-11845.0
151	0x40b3ee8000000000	5102.5
152	0xc0c4988000000000	-10545.0
153	0x40a63d0000000000	2846.5
154	0xc0c1238000000000	-8775.0
155	0x40b32e8000000000	4910.5
156	0xc0c2548000000000	-9385.0
157	0x40b9f98000000000	6649.5
158	0xc0c71d8000000000	-11835.0
159	0x40b5248000000000	5412.5
160	0xc0c55b8000000000	-10935.0
161	0x40aa570000000000	3371.5
162	0xc0c10f8000000000	-8735.0
163	0x40b1ad8000000000	4525.5
164	0xc0c0d38000000000	-8615.0
165	0x40bb6b8000000000	7019.5
166	0xc0c5dd8000000000	-11195.0
167	0x40b22c8000000000	4652.5
168	0xc0c5608000000000	-10945.0
169	0x40a9990000000000	3276.5
170	0xc0c1e18000000000	-9155.0
171	0x40b3248000000000	4900.5
172	0xc0c1be8000000000	-9085.0
173	0x40b89b8000000000	6299.5
174	0xc0c8cb8000000000	-12695.0
175	0x40b2958000000000	4757.5
176	0xc0c4168000000000	-10285.0
177	0x40aac50000000000	3426.5
178	0xc0c2f48000000000	-9705.0
179	0x40b0f98000000000	4345.5
180	0xc0c1f58000000000	-9195.0
181	0x40b8d78000000000	6359.5
182	0xc0c7a98000000000	-12115.0
183	0x40b3c68000000000	5062.5
184	0xc0c29f8000000000	-9535.0
185	0x40a6970000000000	2891.5
186	0xc0c3e48000000000	-10185.0
187	0x40b2f78000000000	4855.5
188	0xc0bfd10000000000	-8145.0
189	0x40bbe38000000000	7139.5
190	0xc0c8218000000000	-12355.0
191	0x40b51f8000000000	5407.5
192	0xc0c5798000000000	-10995.0
193	0x40a9d50000000000	3306.5
194	0xc0c1738000000000	-8935.0
195	0x40b0e08000000000	4320.5
196	0xc0bfef0000000000	-8175.0
197	0x40ba768000000000	6774.5
198	0xc0c7d18000000000	-12195.0
199	0x40b5748000000000	5492.5
200	0xc0c3e98000000000	-10195.0
201	0x40a43f0000000000	2591.5
202	0xc0c28b8000000000	-9495.0
203	0x40b34c8000000000	4940.5
204	0xc0c0e28000000000	-8645.0
205	0x40bad08000000000	6864.5
206	0xc0c6c88000000000	-11665.0
207	0x40b4ca8000000000	5322.5
208	0xc0c4b68000000000	-10605.0
209	0x40ab790000000000	3516.5
210	0xc0c3498000000000	-9875.0
211	0x40b2ca8000000000	4810.5
212	0xc0c2688000000000	-9425.0
213	0x40bb668000000000	7014.5
214	0xc0c5fb8000000000	-11255.0
215	0x40b5518000000000	5457.5
216	0xc0c3948000000000	-10025.0
217	0x40a6dd0000000000	2926.5
218	0xc0c1ff8000000000	-9215.0
219	0x40b0098000000000	4105.5
220	0xc0c0478000000000	-8335.0
221	0x40ba088000000000	6664.5
222	0xc0c7d68000000000	-12205.0
223	0x40b4c58000000000	5317.5
224	0xc0c3308000000000	-9825.0
225	0x40a74b0000000000	2981.5
226	0xc0c34e8000000000	-9885.0
227	0x40b0868000000000	4230.5
228	0xc0c25e8000000000	-9405.0
229	0x40bc4c8000000000	7244.5
230	0xc0c7ea8000000000	-12245.0
231	0x40b1d78000000000	4567.5
232	0xc0c2c78000000000	-9615.0
233	0x40a4710000000000	2616.5
234	0xc0c1378000000000	-8815.0
235	0x40afa50000000000	4050.5
236	0xc0c1e18000000000	-9155.0
237	0x40bc248000000000	7204.5
238	0xc0c92a8000000000	-12885.0
239	0x40b55b8000000000	5467.5
240	0xc0c1d28000000000	-9125.0
241	0x40abc90000000000	3556.5
242	0xc0c10a8000000000	-8725.0
243	0x40b31a8000000000	4890.5
244	0xc0c2048000000000	-9225.0
245	0x40bb7f8000000000	7039.5
246	0xc0c6648000000000	-11465.0
247	0x40b2408000000000	4672.5
248	0xc0c3628000000000	-9925.0
249	0x40a9850000000000	3266.5
250	0xc0c0388000000000	-8305.0
251	0x40b3928000000000	5010.5
252	0xc0c0ce8000000000	-8605.0
253	0x40ba7b8000000000	6779.5
254	0xc0c7778000000000	-12015.0
255	0x40b3358000000000	4917.5
