data/input_files/training_params_170.npy (npy, 768 bytes, 1 tensors)

array f8 [10, 8]
00000000: 0000 0000 80db c2c0 0000 0000 00fb a640
00000010: 0000 0000 802b c3c0 0000 0000 801c b140
00000020: 0000 0000 8079 c0c0 0000 0000 805b bc40
00000030: 0000 0000 80be c6c0 0000 0000 80d9 b440
00000040: 0000 0000 80da c3c0 0000 0000 00b1 aa40
00000050: 0000 0000 8032 c1c0 0000 0000 8085 b140
00000060: 0000 0000 8055 c1c0 0000 0000 80a8 ba40
00000070: 0000 0000 80f1 c5c0 0000 0000 8004 b240
00000080: 0000 0000 806a c5c0 0000 0000 00fd a440
00000090: 0000 0000 8077 c2c0 0000 0000 80a4 b040
000000a0: 0000 0000 8012 c3c0 0000 0000 80fe b940
000000b0: 0000 0000 807c c7c0 0000 0000 80b6 b440
000000c0: 0000 0000 80c0 c4c0 0000 0000 00d9 a540
000000d0: 0000 0000 802d c1c0 0000 0000 80ea b040
000000e0: 0000 0000 80b9 c1c0 0000 0000 80e6 b840
000000f0: 0000 0000 8052 c9c0 0000 0000 805d b340
00000100: 0000 0000 8007 c4c0 0000 0000 00f7 a540
00000110: 0000 0000 8064 c1c0 0000 0000 803b b040
00000120: 0000 0000 0045 bfc0 0000 0000 8086 b940
00000130: 0000 0000 800a c6c0 0000 0000 8066 b440
00000140: 0000 0000 80b2 c3c0 0000 0000 00df a940
00000150: 0000 0000 80bc c3c0 0000 0000 801b b240
00000160: 0000 0000 8021 c3c0 0000 0000 8070 bb40
00000170: 0000 0000 8030 c8c0 0000 0000 808e b440
00000180: 0000 0000 8090 c2c0 0000 0000 00e1 a740
00000190: 0000 0000 80a5 c1c0 0000 0000 805b b340
000001a0: 0000 0000 8031 c2c0 0000 0000 80f2 bb40
000001b0: 0000 0000 80af c6c0 0000 0000 80d1 b240
000001c0: 0000 0000 8054 c2c0 0000 0000 00bb aa40
000001d0: 0000 0000 80b0 c0c0 0000 0000 8058 b140
000001e0: 0000 0000 806a c0c0 0000 0000 808a ba40
000001f0: 0000 0000 8004 c7c0 0000 0000 80f9 b240
00000200: 0000 0000 808e c4c0 0000 0000 008d a640
00000210: 0000 0000 801c c3c0 0000 0000 80ed b240
00000220: 0000 0000 802e c0c0 0000 0000 80aa b840
00000230: 0000 0000 801b c9c0 0000 0000 806c b340
00000240: 0000 0000 801b c4c0 0000 0000 008d ab40
00000250: 0000 0000 809b c1c0 0000 0000 8051 b340
00000260: 0000 0000 8069 c1c0 0000 0000 80c8 b840
00000270: 0000 0000 80bc c8c0 0000 0000 8020 b440
-9655.0 2941.5 -9815.0 4380.5 -8435.0 7259.5 -11645.0 5337.5
-10165.0 3416.5 -8805.0 4485.5 -8875.0 6824.5 -11235.0 4612.5
-10965.0 2686.5 -9455.0 4260.5 -9765.0 6654.5 -12025.0 5302.5
-10625.0 2796.5 -8795.0 4330.5 -9075.0 6374.5 -12965.0 4957.5
-10255.0 2811.5 -8905.0 4155.5 -8005.0 6534.5 -11285.0 5222.5
-10085.0 3311.5 -10105.0 4635.5 -9795.0 7024.5 -12385.0 5262.5
-9505.0 3056.5 -9035.0 4955.5 -9315.0 7154.5 -11615.0 4817.5
-9385.0 3421.5 -8545.0 4440.5 -8405.0 6794.5 -11785.0 4857.5
-10525.0 2886.5 -9785.0 4845.5 -8285.0 6314.5 -12855.0 4972.5
-10295.0 3526.5 -9015.0 4945.5 -8915.0 6344.5 -12665.0 5152.5
