data/input_files/training_params_50.npy (npy, 768 bytes, 1 tensors)

array f8 [10, 8]
0	0xc0c4258000000000	-10315.0
1	0x40ab510000000000	3496.5
2	0xc0c3538000000000	-9895.0
3	0x40b2618000000000	4705.5
4	0xc0c04c8000000000	-8345.0
5	0x40bb938000000000	7059.5
6	0xc0c94d8000000000	-12955.0
7	0x40b3f38000000000	5107.5
8	0xc0c3e48000000000	-10185.0
9	0x40a5750000000000	2746.5
10	0xc0c1f58000000000	-9195.0
11	0x40b2fc8000000000	4860.5
12	0xc0c2f98000000000	-9715.0
13	0x40bc108000000000	7184.5
14	0xc0c7e08000000000	-12225.0
15	0x40b2db8000000000	4827.5
16	0xc0c52e8000000000	-10845.0
17	0x40a6b50000000000	2906.5
18	0xc0c11e8000000000	-8765.0
19	0x40b2b18000000000	4785.5
20	0xc0c1008000000000	-8705.0
21	0x40bbac8000000000	7084.5
22	0xc0c72c8000000000	-11865.0
23	0x40b2778000000000	4727.5
24	0xc0c3768000000000	-9965.0
25	0x40a8e50000000000	3186.5
26	0xc0c3218000000000	-9795.0
27	0x40b0548000000000	4180.5
28	0xc0c2fe8000000000	-9725.0
29	0x40ba3f8000000000	6719.5
30	0xc0c6698000000000	-11475.0
31	0x40b5428000000000	5442.5
32	0xc0c2458000000000	-9355.0
33	0x40a92b0000000000	3221.5
34	0xc0c36c8000000000	-9945.0
35	0x40b02c8000000000	4140.5
36	0xc0bf9f0000000000	-8095.0
37	0x40bbb68000000000	7094.5
38	0xc0c8f88000000000	-12785.0
39	0x40b1aa8000000000	4522.5
40	0xc0c4528000000000	-10405.0
41	0x40a8590000000000	3116.5
42	0xc0c2598000000000	-9395.0
43	0x40b24d8000000000	4685.5
44	0xc0c0e78000000000	-8655.0
45	0x40ba128000000000	6674.5
46	0xc0c58d8000000000	-11035.0
47	0x40b33f8000000000	4927.5
48	0xc0c4a78000000000	-10575.0
49	0x40a7c30000000000	3041.5
50	0xc0c1b48000000000	-9065.0
51	0x40b2d48000000000	4820.5
52	0xc0c0838000000000	-8455.0
53	0x40baa38000000000	6819.5
54	0xc0c8c68000000000	-12685.0
55	0x40b2d68000000000	4822.5
56	0xc0c1a58000000000	-9035.0
57	0x40aa750000000000	3386.5
58	0xc0c1418000000000	-8835.0
59	0x40b2078000000000	4615.5
60	0xc0c3088000000000	-9745.0
61	0x40bb258000000000	6949.5
62	0xc0c7408000000000	-11905.0
63	0x40b2cc8000000000	4812.5
64	0xc0c40c8000000000	-10265.0
65	0x40a7ff0000000000	3071.5
66	0xc0c2b38000000000	-9575.0
67	0x40b2bb8000000000	4795.5
68	0xc0c0298000000000	-8275.0
69	0x40ba538000000000	6739.5
70	0xc0c7fe8000000000	-12285.0
71	0x40b4c08000000000	5312.5
72	0xc0c24a8000000000	-9365.0
73	0x40a9490000000000	3236.5
74	0xc0c35d8000000000	-9915.0
75	0x40b0368000000000	4150.5
76	0xc0c3678000000000	-9935.0
77	0x40b8dc8000000000	6364.5
78	0xc0c6288000000000	-11345.0
79	0x40b4488000000000	5192.5
