data/input_files/training_params_340.npy (npy, 1408 bytes, 1 tensors)

array f8 [20, 8]
-10557.5 -693.5 -8852.5 -909.0 -8627.5 2393.0 -12747.5 -1681.0
-9357.5 -543.5 -9132.5 -459.0 -8742.5 2263.0 -12162.5 -1679.0
-10687.5 -816.5 -8867.5 -925.0 -9777.5 2599.0 -12327.5 -1683.0
-10777.5 -558.5 -9727.5 -638.9999999999999 -8607.5 2753.0 -12842.5 -2141.0
-10807.5 -915.5 -8402.5 -1071.0 -9587.5 2055.0 -11332.5 -1821.0
-10697.5 -15.5 -9177.5 -1171.0 -8987.5 2459.0 -11912.5 -2243.0
-9762.5 80.5 -8672.5 -839.0 -9857.5 2307.0 -11872.5 -2419.0
-9752.5 -168.5000000000001 -8942.5 -559.0 -8937.5 2643.0 -11802.5 -1729.0
-9382.5 -402.5 -10162.5 -967.0 -9602.5 2693.0 -11932.5 -2307.0
-10097.5 221.5 -9482.5 -509.0 -9917.5 2745.0 -11777.5 -2041.0
-9332.5 -141.5 -9777.5 -579.0 -9957.5 2517.0 -12157.5 -1769.0
-9947.5 -378.5 -9952.5 -697.0 -8232.5 2581.0 -11052.5 -2021.0
-10912.5 -282.5 -8667.5 -429.0 -8817.5 2423.0 -11237.5 -1807.0
-9417.5 -906.5 -10017.5 -511.0 -8927.5 2141.0 -12797.5 -1797.0
-10832.5 -945.5 -8917.5 -821.0 -8362.5 2001.0 -12112.5 -1723.0
-10217.5 -675.5 -9137.5 -425.0 -8312.5 2353.0 -11352.5 -2151.0
-9102.5 20.5 -10022.5 -605.0 -8672.5 2429.0 -11562.5 -1791.0
-9687.5 -432.5 -8812.5 -743.0 -9682.5 2555.0 -11527.5 -1841.0
-10922.5 146.5 -8972.5 -741.0 -8172.5 2677.0 -12252.5 -2211.0
-10012.5 -309.5 -8502.5 -775.0 -9782.5 2625.0 -12577.5 -2111.0
00000000: 0000 0000 c09e c4c0 0000 0000 00ac 85c0
00000010: 0000 0000 404a c1c0 0000 0000 0068 8cc0
00000020: 0000 0000 c0d9 c0c0 0000 0000 00b2 a240
00000030: 0000 0000 c0e5 c8c0 0000 0000 0044 9ac0
00000040: 0000 0000 c046 c2c0 0000 0000 00fc 80c0
00000050: 0000 0000 40d6 c1c0 0000 0000 00b0 7cc0
00000060: 0000 0000 4013 c1c0 0000 0000 00ae a140
00000070: 0000 0000 40c1 c7c0 0000 0000 003c 9ac0
00000080: 0000 0000 c0df c4c0 0000 0000 0084 89c0
00000090: 0000 0000 c051 c1c0 0000 0000 00e8 8cc0
000000a0: 0000 0000 c018 c3c0 0000 0000 004e a440
000000b0: 0000 0000 c013 c8c0 0000 0000 004c 9ac0
000000c0: 0000 0000 c00c c5c0 0000 0000 0074 81c0
000000d0: 0000 0000 c0ff c2c0 ffff ffff fff7 83c0
000000e0: 0000 0000 c0cf c0c0 0000 0000 0082 a540
000000f0: 0000 0000 4015 c9c0 0000 0000 00ba a0c0
00000100: 0000 0000 c01b c5c0 0000 0000 009c 8cc0
00000110: 0000 0000 4069 c0c0 0000 0000 00bc 90c0
00000120: 0000 0000 c0b9 c2c0 0000 0000 000e a040
00000130: 0000 0000 4022 c6c0 0000 0000 0074 9cc0
00000140: 0000 0000 c0e4 c4c0 0000 0000 0000 2fc0
00000150: 0000 0000 c0ec c1c0 0000 0000 004c 92c0
00000160: 0000 0000 c08d c1c0 0000 0000 0036 a340
00000170: 0000 0000 4044 c7c0 0000 0000 0086 a1c0
00000180: 0000 0000 4011 c3c0 0000 0000 0020 5440
00000190: 0000 0000 40f0 c0c0 0000 0000 0038 8ac0
000001a0: 0000 0000 c040 c3c0 0000 0000 0006 a240
000001b0: 0000 0000 4030 c7c0 0000 0000 00e6 a2c0
000001c0: 0000 0000 400c c3c0 0400 0000 0010 65c0
000001d0: 0000 0000 4077 c1c0 0000 0000 0078 81c0
000001e0: 0000 0000 c074 c1c0 0000 0000 00a6 a440
000001f0: 0000 0000 400d c7c0 0000 0000 0004 9bc0
00000200: 0000 0000 4053 c2c0 0000 0000 0028 79c0
00000210: 0000 0000 40d9 c3c0 0000 0000 0038 8ec0
00000220: 0000 0000 40c1 c2c0 0000 0000 000a a540
00000230: 0000 0000 404e c7c0 0000 0000 0006 a2c0
00000240: 0000 0000 c0b8 c3c0 0000 0000 00b0 6b40
00000250: 0000 0000 4085 c2c0 0000 0000 00d0 7fc0
00000260: 0000 0000 c05e c3c0 0000 0000 0072 a540
00000270: 0000 0000 c000 c7c0 0000 0000 00e4 9fc0
00000280: 0000 0000 403a c2c0 0000 0000 00b0 61c0
00000290: 0000 0000 c018 c3c0 0000 0000 0018 82c0
000002a0: 0000 0000 c072 c3c0 0000 0000 00aa a340
000002b0: 0000 0000 c0be c7c0 0000 0000 00a4 9bc0
000002c0: 0000 0000 c06d c3c0 0000 0000 00a8 77c0
000002d0: 0000 0000 4070 c3c0 0000 0000 00c8 85c0
000002e0: 0000 0000 4014 c0c0 0000 0000 002a a440
000002f0: 0000 0000 4096 c5c0 0000 0000 0094 9fc0
00000300: 0000 0000 4050 c5c0 0000 0000 00a8 71c0
00000310: 0000 0000 c0ed c0c0 0000 0000 00d0 7ac0
00000320: 0000 0000 c038 c1c0 0000 0000 00ee a240
00000330: 0000 0000 c0f2 c5c0 0000 0000 003c 9cc0
00000340: 0000 0000 c064 c2c0 0000 0000 0054 8cc0
00000350: 0000 0000 c090 c3c0 0000 0000 00f0 7fc0
00000360: 0000 0000 c06f c1c0 0000 0000 00ba a040
00000370: 0000 0000 c0fe c8c0 0000 0000 0014 9cc0
00000380: 0000 0000 4028 c5c0 0000 0000 008c 8dc0
00000390: 0000 0000 c06a c1c0 0000 0000 00a8 89c0
000003a0: 0000 0000 4055 c0c0 0000 0000 0044 9f40
000003b0: 0000 0000 40a8 c7c0 0000 0000 00ec 9ac0
000003c0: 0000 0000 c0f4 c3c0 0000 0000 001c 85c0
000003d0: 0000 0000 c0d8 c1c0 0000 0000 0090 7ac0
000003e0: 0000 0000 403c c0c0 0000 0000 0062 a240
000003f0: 0000 0000 402c c6c0 0000 0000 00ce a0c0
00000400: 0000 0000 40c7 c1c0 0000 0000 0080 3440
00000410: 0000 0000 4093 c3c0 0000 0000 00e8 82c0
00000420: 0000 0000 40f0 c0c0 0000 0000 00fa a240
00000430: 0000 0000 4095 c6c0 0000 0000 00fc 9bc0
00000440: 0000 0000 c0eb c2c0 0000 0000 0008 7bc0
00000450: 0000 0000 4036 c1c0 0000 0000 0038 87c0
00000460: 0000 0000 40e9 c2c0 0000 0000 00f6 a340
00000470: 0000 0000 c083 c6c0 0000 0000 00c4 9cc0
00000480: 0000 0000 4055 c5c0 0000 0000 0050 6240
00000490: 0000 0000 4086 c1c0 0000 0000 0028 87c0
000004a0: 0000 0000 80ec bfc0 0000 0000 00ea a440
000004b0: 0000 0000 40ee c7c0 0000 0000 0046 a1c0
000004c0: 0000 0000 408e c3c0 0000 0000 0058 73c0
000004d0: 0000 0000 409b c0c0 0000 0000 0038 88c0
000004e0: 0000 0000 401b c3c0 0000 0000 0082 a440
000004f0: 0000 0000 c090 c8c0 0000 0000 007e a0c0
