data/input_files/training_params_310.npy (npy, 768 bytes, 1 tensors)

array f8 [10, 8]
-9700.0 200.0 -9200.0 -600.0 -8600.0 2400.0 -11700.0 -2300.0
-9200.0 -500.0 -8500.0 -700.0 -9000.0 2200.0 -12400.0 -2300.0
-10400.0 200.0 -8600.0 -400.0 -8000.0 2100.0 -11700.0 -2400.0
-10900.0 -900.0 -8400.0 -400.0 -8400.0 2100.0 -12800.0 -1800.0
-10700.0 -600.0 -9300.0 -400.0 -8600.0 2400.0 -11700.0 -1800.0
-10700.0 -100.0 -8200.0 -500.0 -9200.0 2100.0 -11900.0 -2000.0
-9100.0 -400.0 -9400.0 -500.0 -8900.0 2500.0 -11400.0 -1700.0
-10000.0 -200.0 -8800.0 -900.0 -9100.0 2300.0 -11300.0 -2300.0
-10300.0 0.0 -10100.0 -900.0 -9600.0 2700.0 -12000.0 -2400.0
-10900.0 -0.0 -8700.0 -1000.0 -8400.0 2200.0 -11300.0 -1700.0
00000000: 0000 0000 00f2 c2c0 0000 0000 0000 6940
00000010: 0000 0000 00f8 c1c0 0000 0000 00c0 82c0
00000020: 0000 0000 00cc c0c0 0000 0000 00c0 a240
00000030: 0000 0000 00da c6c0 0000 0000 00f8 a1c0
00000040: 0000 0000 00f8 c1c0 0000 0000 0040 7fc0
00000050: 0000 0000 009a c0c0 0000 0000 00e0 85c0
00000060: 0000 0000 0094 c1c0 0000 0000 0030 a140
00000070: 0000 0000 0038 c8c0 0000 0000 00f8 a1c0
00000080: 0000 0000 0050 c4c0 0000 0000 0000 6940
00000090: 0000 0000 00cc c0c0 0000 0000 0000 79c0
000000a0: 0000 0000 0040 bfc0 0000 0000 0068 a040
000000b0: 0000 0000 00da c6c0 0000 0000 00c0 a2c0
000000c0: 0000 0000 004a c5c0 0000 0000 0020 8cc0
000000d0: 0000 0000 0068 c0c0 0000 0000 0000 79c0
000000e0: 0000 0000 0068 c0c0 0000 0000 0068 a040
000000f0: 0000 0000 0000 c9c0 0000 0000 0020 9cc0
00000100: 0000 0000 00e6 c4c0 0000 0000 00c0 82c0
00000110: 0000 0000 002a c2c0 0000 0000 0000 79c0
00000120: 0000 0000 00cc c0c0 0000 0000 00c0 a240
00000130: 0000 0000 00da c6c0 0000 0000 0020 9cc0
00000140: 0000 0000 00e6 c4c0 0000 0000 0000 59c0
00000150: 0000 0000 0004 c0c0 0000 0000 0040 7fc0
00000160: 0000 0000 00f8 c1c0 0000 0000 0068 a040
00000170: 0000 0000 003e c7c0 0000 0000 0040 9fc0
00000180: 0000 0000 00c6 c1c0 0000 0000 0000 79c0
00000190: 0000 0000 005c c2c0 0000 0000 0040 7fc0
000001a0: 0000 0000 0062 c1c0 0000 0000 0088 a340
000001b0: 0000 0000 0044 c6c0 0000 0000 0090 9ac0
000001c0: 0000 0000 0088 c3c0 0000 0000 0000 69c0
000001d0: 0000 0000 0030 c1c0 0000 0000 0020 8cc0
000001e0: 0000 0000 00c6 c1c0 0000 0000 00f8 a140
000001f0: 0000 0000 0012 c6c0 0000 0000 00f8 a1c0
00000200: 0000 0000 001e c4c0 0000 0000 0000 0000
00000210: 0000 0000 00ba c3c0 0000 0000 0020 8cc0
00000220: 0000 0000 00c0 c2c0 0000 0000 0018 a540
00000230: 0000 0000 0070 c7c0 0000 0000 00c0 a2c0
00000240: 0000 0000 004a c5c0 0000 0000 0000 0080
00000250: 0000 0000 00fe c0c0 0000 0000 0040 8fc0
00000260: 0000 0000 0068 c0c0 0000 0000 0030 a140
00000270: 0000 0000 0012 c6c0 0000 0000 0090 9ac0
