data/input_files/training_params_100.npy (npy, 1408 bytes, 1 tensors)

array f8 [20, 8]
00000000: 0000 0000 408a c2c0 0000 0000 002c 8ac0
00000010: 0000 0000 403e c3c0 0000 0000 0098 85c0
00000020: 0000 0000 4073 c0c0 0000 0000 0006 a040
00000030: 0000 0000 40b6 c8c0 0000 0000 0024 9fc0
00000040: 0000 0000 4076 c2c0 0000 0000 008c 84c0
00000050: 0000 0000 c077 c3c0 0000 0000 0070 79c0
00000060: 0000 0000 4021 c2c0 0000 0000 008e a040
00000070: 0000 0000 c0b0 c6c0 0000 0000 003c 9fc0
00000080: 0000 0000 404b c5c0 0000 0000 00b8 7cc0
00000090: 0000 0000 4009 c1c0 0000 0000 0008 84c0
000000a0: 0000 0000 c01d c3c0 0000 0000 009e a540
000000b0: 0000 0000 4087 c5c0 0000 0000 0026 a3c0
000000c0: 0000 0000 4021 c2c0 0000 0000 0078 77c0
000000d0: 0000 0000 c00a c2c0 0000 0000 00e8 83c0
000000e0: 0000 0000 4054 c1c0 0000 0000 0042 a240
000000f0: 0000 0000 c0cf c5c0 0000 0000 00e4 9cc0
00000100: 0000 0000 c0ee c4c0 f0ff ffff ff3f 4c40
00000110: 0000 0000 4008 c2c0 0000 0000 00ac 90c0
00000120: 0000 0000 404a c1c0 0000 0000 0072 a440
00000130: 0000 0000 4027 c6c0 0000 0000 0076 a0c0
00000140: 0000 0000 40dd c4c0 0000 0000 001c 82c0
00000150: 0000 0000 c05b c1c0 0000 0000 00e8 81c0
00000160: 0000 0000 40b8 c1c0 0000 0000 00a2 a140
00000170: 0000 0000 402a c8c0 0000 0000 007a a2c0
00000180: 0000 0000 407a c3c0 0000 0000 0090 6140
00000190: 0000 0000 c0ce c1c0 0000 0000 00d8 83c0
000001a0: 0000 0000 c027 c3c0 0000 0000 0042 a440
000001b0: 0000 0000 40e9 c7c0 0000 0000 006a a2c0
000001c0: 0000 0000 40db c1c0 2000 0000 0080 3740
000001d0: 0000 0000 c0ca c0c0 0000 0000 0018 8fc0
000001e0: 0000 0000 4039 c3c0 0000 0000 0012 a340
000001f0: 0000 0000 c0b4 c7c0 0000 0000 0056 a0c0
00000200: 0000 0000 c04a c3c0 0000 0000 00f0 69c0
00000210: 0000 0000 c087 c2c0 0000 0000 0050 79c0
00000220: 0000 0000 c041 c2c0 0000 0000 0036 a440
00000230: 0000 0000 c05a c7c0 0000 0000 00f4 9ac0
00000240: 0000 0000 4070 c3c0 feff ffff ff37 78c0
00000250: 0000 0000 c020 c0c0 0000 0000 0064 90c0
00000260: 0000 0000 4078 c0c0 0000 0000 00de a140
00000270: 0000 0000 c038 c6c0 0000 0000 00a2 a1c0
00000280: 0000 0000 c081 c3c0 0000 0000 0060 5940
00000290: 0000 0000 c028 c2c0 0000 0000 0064 91c0
000002a0: 0000 0000 4022 c1c0 0000 0000 008a a340
000002b0: 0000 0000 40cd c5c0 0000 0000 00a6 a2c0
000002c0: 0000 0000 40ec c4c0 0000 0000 0060 54c0
000002d0: 0000 0000 4072 c1c0 0000 0000 0084 92c0
000002e0: 0000 0000 c03c c2c0 0000 0000 0072 a040
000002f0: 0000 0000 c008 c9c0 0000 0000 005a a1c0
00000300: 0000 0000 4042 c4c0 0000 0000 0070 65c0
00000310: 0000 0000 c066 c0c0 0000 0000 0008 8dc0
00000320: 0000 0000 4002 c3c0 0000 0000 00d2 a040
00000330: 0000 0000 40f8 c7c0 0000 0000 00a4 9cc0
00000340: 0000 0000 4003 c2c0 f8ff ffff ffdf 52c0
00000350: 0000 0000 c038 c1c0 0000 0000 00c4 91c0
00000360: 0000 0000 404b c0c0 0000 0000 00be a040
00000370: 0000 0000 c0d3 c6c0 0000 0000 004c 9ec0
00000380: 0000 0000 c022 c3c0 0000 0000 0000 2d40
00000390: 0000 0000 c050 c2c0 0000 0000 00d8 86c0
000003a0: 0000 0000 c098 c0c0 0000 0000 0006 a340
000003b0: 0000 0000 c0a5 c7c0 0000 0000 000a a1c0
000003c0: 0000 0000 40ed c3c0 0000 0000 00e0 5d40
000003d0: 0000 0000 c016 c0c0 0000 0000 0070 7ec0
000003e0: 0000 0000 40a0 c0c0 0000 0000 007c 9f40
000003f0: 0000 0000 c072 c8c0 0000 0000 003c 9bc0
00000400: 0000 0000 40b5 c4c0 ffff ffff ffe7 7cc0
00000410: 0000 0000 406e c0c0 0000 0000 0058 80c0
00000420: 0000 0000 c083 c1c0 0000 0000 00ae a040
00000430: 0000 0000 c05e c8c0 0000 0000 0094 9ac0
00000440: 0000 0000 c0d1 c3c0 fcff ffff ffcf 65c0
00000450: 0000 0000 c02f c0c0 0000 0000 0048 8ac0
00000460: 0000 0000 400f c0c0 0000 0000 009e a440
00000470: 0000 0000 c046 c7c0 0000 0000 00ec 9dc0
00000480: 0000 0000 40f3 c2c0 0000 0000 0010 6ec0
00000490: 0000 0000 40b6 c3c0 feff ffff ff8f 7ec0
000004a0: 0000 0000 80fb bfc0 0000 0000 0046 a040
000004b0: 0000 0000 40b7 c7c0 0000 0000 00fe a0c0
000004c0: 0000 0000 40e0 c1c0 0000 0000 00c8 7bc0
000004d0: 0000 0000 c01f c1c0 0000 0000 00f8 84c0
000004e0: 0000 0000 c063 c3c0 0000 0000 00ee a040
000004f0: 0000 0000 403a c7c0 0000 0000 00da a1c0
-9492.5 -837.5 -9852.5 -691.0 -8422.5 2051.0 -12652.5 -1993.0
-9452.5 -657.5 -9967.5 -407.0 -9282.5 2119.0 -11617.5 -1999.0
-10902.5 -459.5 -8722.5 -641.0 -9787.5 2767.0 -11022.5 -2451.0
-9282.5 -375.5 -9237.5 -637.0 -8872.5 2337.0 -11167.5 -1849.0
-10717.5 56.499999999999886 -9232.5 -1067.0 -8852.5 2617.0 -11342.5 -2107.0
-10682.5 -579.5 -8887.5 -573.0 -9072.5 2257.0 -12372.5 -2365.0
-9972.5 140.5 -9117.5 -635.0 -9807.5 2593.0 -12242.5 -2357.0
-9142.5 23.500000000000114 -8597.5 -995.0 -9842.5 2441.0 -12137.5 -2091.0
-9877.5 -207.5 -9487.5 -405.0 -9347.5 2587.0 -11957.5 -1725.0
-9952.5 -387.4999999999999 -8257.5 -1049.0 -8432.5 2287.0 -11377.5 -2257.0
-9987.5 101.5 -9297.5 -1113.0 -8772.5 2501.0 -11162.5 -2387.0
-10712.5 -81.5 -8932.5 -1185.0 -9337.5 2105.0 -12817.5 -2221.0
-10372.5 -171.5 -8397.5 -929.0 -9732.5 2153.0 -12272.5 -1833.0
-9222.5 -75.49999999999989 -8817.5 -1137.0 -8342.5 2143.0 -11687.5 -1939.0
-9797.5 14.5 -9377.5 -731.0 -8497.5 2435.0 -12107.5 -2181.0
-10202.5 119.5 -8237.5 -487.0 -8512.5 2015.0 -12517.5 -1743.0
-10602.5 -462.49999999999994 -8412.5 -523.0 -8967.5 2135.0 -12477.5 -1701.0
-10147.5 -174.4999999999999 -8287.5 -841.0 -8222.5 2639.0 -11917.5 -1915.0
-9702.5 -240.5 -10092.5 -488.9999999999999 -8187.5 2083.0 -12142.5 -2175.0
-9152.5 -444.5 -8767.5 -671.0 -9927.5 2167.0 -11892.5 -2285.0
