data/input_files/training_params_200.npy (npy, 1408 bytes, 1 tensors)

array f8 [20, 8]
00000000: 0000 0000 4065 c4c0 0000 0000 00b0 6540
00000010: 0000 0000 4081 c1c0 0000 0000 0074 90c0
00000020: 0000 0000 402f c3c0 0000 0000 0084 9f40
00000030: 0000 0000 c06d c8c0 0000 0000 0022 a1c0
00000040: 0000 0000 4012 c2c0 0000 0000 006c 8cc0
00000050: 0000 0000 4030 c2c0 0000 0000 006c 92c0
00000060: 0000 0000 4040 c1c0 0000 0000 00c2 a240
00000070: 0000 0000 c065 c6c0 0000 0000 008a a1c0
00000080: 0000 0000 c0da c4c0 0000 0000 0020 5140
00000090: 0000 0000 402a c3c0 0000 0000 0098 84c0
000000a0: 0000 0000 c0a2 c0c0 0000 0000 00ce a340
000000b0: 0000 0000 4008 c7c0 0000 0000 00b4 9fc0
000000c0: 0000 0000 c026 c4c0 0000 0000 0090 6fc0
000000d0: 0000 0000 c0a7 c0c0 0000 0000 00d8 87c0
000000e0: 0000 0000 4037 c0c0 0000 0000 00fe a240
000000f0: 0000 0000 40e0 c6c0 0000 0000 001e a1c0
00000100: 0000 0000 40ca c3c0 0000 0000 0014 84c0
00000110: 0000 0000 408c c0c0 0000 0000 007c 92c0
00000120: 0000 0000 4082 c0c0 0000 0000 0056 a540
00000130: 0000 0000 40e3 c8c0 0000 0000 00d2 a1c0
00000140: 0000 0000 40d9 c3c0 0000 0000 0098 75c0
00000150: 0000 0000 409d c3c0 0000 0000 00b0 7bc0
00000160: 0000 0000 405f c0c0 0000 0000 005e a140
00000170: 0000 0000 c054 c8c0 0000 0000 0074 9fc0
00000180: 0000 0000 40b7 c2c0 0000 0000 00bc 81c0
00000190: 0000 0000 4039 c3c0 0000 0000 00b0 79c0
000001a0: 0000 0000 40fe c1c0 0000 0000 00a6 a140
000001b0: 0000 0000 c0c8 c7c0 0000 0000 005c 9dc0
000001c0: 0000 0000 40b3 c1c0 0000 0000 0054 86c0
000001d0: 0000 0000 4067 c2c0 feff ffff ff0f 7ec0
000001e0: 0000 0000 4004 c1c0 0000 0000 00ca a240
000001f0: 0000 0000 c04e c9c0 0000 0000 00a6 a1c0
00000200: 0000 0000 c0dd c1c0 f0ff ffff ff3f 4640
00000210: 0000 0000 c03e c0c0 0000 0000 0088 86c0
00000220: 0000 0000 c054 c3c0 0000 0000 00ba a240
00000230: 0000 0000 405d c7c0 0000 0000 0042 a1c0
00000240: 0000 0000 c053 c4c0 fcff ffff ffcf 62c0
00000250: 0000 0000 c06d c3c0 0000 0000 00f8 8cc0
00000260: 0000 0000 80b5 bfc0 0000 0000 002e a540
00000270: 0000 0000 4071 c7c0 0000 0000 000c 9ac0
00000280: 0000 0000 405b c4c0 0000 0000 006c 83c0
00000290: 0000 0000 4007 c3c0 0000 0000 008c 90c0
000002a0: 0000 0000 806f bfc0 0000 0000 00a4 9f40
000002b0: 0000 0000 c07f c5c0 0000 0000 00b6 a0c0
000002c0: 0000 0000 4043 c3c0 0400 0000 00f0 6fc0
000002d0: 0000 0000 c0e0 c3c0 0000 0000 00d8 84c0
000002e0: 0000 0000 4017 c2c0 0000 0000 00da a140
000002f0: 0000 0000 406d c6c0 0000 0000 005a a0c0
00000300: 0000 0000 40f6 c4c0 0000 0000 00bc 8dc0
00000310: 0000 0000 4052 c3c0 0000 0000 0098 89c0
00000320: 0000 0000 40d7 c0c0 0000 0000 0046 a340
00000330: 0000 0000 4062 c7c0 0000 0000 001c 9fc0
00000340: 0000 0000 4085 c2c0 0000 0000 0038 72c0
00000350: 0000 0000 c0f1 c1c0 ffff ffff ffd7 80c0
00000360: 0000 0000 c0ab c1c0 0000 0000 00d2 a440
00000370: 0000 0000 40ae c6c0 0000 0000 0024 9cc0
00000380: 0000 0000 40d6 c1c0 0000 0000 00e0 5bc0
00000390: 0000 0000 c059 c3c0 0000 0000 0068 81c0
000003a0: 0000 0000 c082 c2c0 0000 0000 004c 9f40
000003b0: 0000 0000 4006 c9c0 0000 0000 009c 9ac0
000003c0: 0000 0000 40bd c1c0 0000 0000 0030 6440
000003d0: 0000 0000 c013 c3c0 0000 0000 0018 88c0
000003e0: 0000 0000 40bd c1c0 0000 0000 0056 a240
000003f0: 0000 0000 c018 c8c0 0000 0000 00cc 9ac0
00000400: 0000 0000 c0db c3c0 0000 0000 002c 8dc0
00000410: 0000 0000 c089 c0c0 0000 0000 0044 91c0
00000420: 0000 0000 8060 bfc0 0000 0000 0042 a540
00000430: 0000 0000 c051 c6c0 0000 0000 0014 9dc0
00000440: 0000 0000 c0a8 c4c0 0000 0000 007c 82c0
00000450: 0000 0000 40b1 c3c0 0000 0000 0058 8cc0
00000460: 0000 0000 c0f5 c2c0 0000 0000 00b2 a340
00000470: 0000 0000 40d0 c7c0 0000 0000 0066 a0c0
00000480: 0000 0000 4024 c4c0 0000 0000 00ec 84c0
00000490: 0000 0000 c070 c0c0 0000 0000 0098 88c0
000004a0: 0000 0000 40a9 c1c0 0000 0000 00aa a540
000004b0: 0000 0000 c012 c9c0 0000 0000 003a a0c0
000004c0: 0000 0000 c05e c3c0 0000 0000 00b4 83c0
000004d0: 0000 0000 4094 c2c0 0000 0000 00e8 8ec0
000004e0: 0000 0000 4007 c3c0 0000 0000 009e a340
000004f0: 0000 0000 40a9 c6c0 0000 0000 00b4 9ac0
-10442.5 173.5 -8962.5 -1053.0 -9822.5 2017.0 -12507.5 -2193.0
-9252.5 -909.5 -9312.5 -1179.0 -8832.5 2401.0 -11467.5 -2245.0
-10677.5 68.5 -9812.5 -659.0 -8517.5 2535.0 -11792.5 -2029.0
-10317.5 -252.5 -8527.5 -763.0 -8302.5 2431.0 -11712.5 -2191.0
-10132.5 -642.5 -8472.5 -1183.0 -8452.5 2731.0 -12742.5 -2281.0
-10162.5 -345.5 -10042.5 -443.0 -8382.5 2223.0 -12457.5 -2013.0
-9582.5 -567.5 -9842.5 -411.0 -9212.5 2259.0 -12177.5 -1879.0
-9062.5 -714.5 -9422.5 -480.9999999999999 -8712.5 2405.0 -12957.5 -2259.0
-9147.5 44.499999999999886 -8317.5 -721.0 -9897.5 2397.0 -11962.5 -2209.0
-10407.5 -150.4999999999999 -9947.5 -927.0 -8117.5 2711.0 -12002.5 -1667.0
-10422.5 -621.5 -9742.5 -1059.0 -8047.5 2025.0 -11007.5 -2139.0
-9862.5 -255.5000000000001 -10177.5 -667.0 -9262.5 2285.0 -11482.5 -2093.0
-10732.5 -951.5 -9892.5 -819.0 -8622.5 2467.0 -11972.5 -1991.0
-9482.5 -291.5 -9187.5 -538.9999999999999 -9047.5 2665.0 -11612.5 -1801.0
-9132.5 -111.5 -9907.5 -557.0 -9477.5 2003.0 -12812.5 -1703.0
-9082.5 161.5 -9767.5 -771.0 -9082.5 2347.0 -12337.5 -1715.0
-10167.5 -933.5 -8467.5 -1105.0 -8032.5 2721.0 -11427.5 -1861.0
-10577.5 -591.5 -10082.5 -907.0 -9707.5 2521.0 -12192.5 -2099.0
-10312.5 -669.5 -8417.5 -787.0 -9042.5 2773.0 -12837.5 -2077.0
-9917.5 -630.5 -9512.5 -989.0 -9742.5 2511.0 -11602.5 -1709.0
