data/input_files/validation_params_00.npy (npy, 768 bytes, 1 tensors)

array f8 [10, 8]
000000 00 00 00 00 80 cc c2 c0 00 00 00 00 00 d7 a7 40
       -9625.0 3051.5
000010 00 00 00 00 80 99 c3 c0 00 00 00 00 80 f2 b2 40
       -10035.0 4850.5
000020 00 00 00 00 80 18 c2 c0 00 00 00 00 80 c0 bb 40
       -9265.0 7104.5
000030 00 00 00 00 80 2d c6 c0 00 00 00 00 80 53 b3 40
       -11355.0 4947.5
000040 00 00 00 00 80 49 c3 c0 00 00 00 00 00 e3 aa 40
       -9875.0 3441.5
000050 00 00 00 00 80 88 c0 c0 00 00 00 00 80 0d b1 40
       -8465.0 4365.5
000060 00 00 00 00 80 9f c2 c0 00 00 00 00 80 89 bb 40
       -9535.0 7049.5
000070 00 00 00 00 80 54 c7 c0 00 00 00 00 80 a5 b1 40
       -11945.0 4517.5
000080 00 00 00 00 80 12 c3 c0 00 00 00 00 00 39 aa 40
       -9765.0 3356.5
000090 00 00 00 00 80 4b c1 c0 00 00 00 00 80 35 b1 40
       -8855.0 4405.5
0000a0 00 00 00 00 80 8c c1 c0 00 00 00 00 80 02 bb 40
       -8985.0 6914.5
0000b0 00 00 00 00 80 a5 c6 c0 00 00 00 00 80 29 b5 40
       -11595.0 5417.5
0000c0 00 00 00 00 80 31 c2 c0 00 00 00 00 00 43 aa 40
       -9315.0 3361.5
0000d0 00 00 00 00 80 28 c1 c0 00 00 00 00 80 ef b0 40
       -8785.0 4335.5
0000e0 00 00 00 00 80 33 c0 c0 00 00 00 00 80 16 bb 40
       -8295.0 6934.5
0000f0 00 00 00 00 80 e9 c8 c0 00 00 00 00 80 72 b2 40
       -12755.0 4722.5
000100 00 00 00 00 80 e3 c4 c0 00 00 00 00 00 f7 aa 40
       -10695.0 3451.5
000110 00 00 00 00 80 3b c2 c0 00 00 00 00 80 e9 b1 40
       -9335.0 4585.5
000120 00 00 00 00 80 eb c1 c0 00 00 00 00 80 bc ba 40
       -9175.0 6844.5
000130 00 00 00 00 80 d3 c5 c0 00 00 00 00 80 43 b4 40
       -11175.0 5187.5
000140 00 00 00 00 80 93 c4 c0 00 00 00 00 00 cb a9 40
       -10535.0 3301.5
000150 00 00 00 00 80 95 c2 c0 00 00 00 00 80 22 b0 40
       -9515.0 4130.5
000160 00 00 00 00 80 30 c3 c0 00 00 00 00 80 84 bb 40
       -9825.0 7044.5
000170 00 00 00 00 80 39 c9 c0 00 00 00 00 80 e4 b3 40
       -12915.0 5092.5
000180 00 00 00 00 80 17 c3 c0 00 00 00 00 00 05 a7 40
       -9775.0 2946.5
000190 00 00 00 00 80 72 c2 c0 00 00 00 00 80 81 b0 40
       -9445.0 4225.5
0001a0 00 00 00 00 80 65 c0 c0 00 00 00 00 80 c1 ba 40
       -8395.0 6849.5
0001b0 00 00 00 00 80 b9 c6 c0 00 00 00 00 80 1d b2 40
       -11635.0 4637.5
0001c0 00 00 00 00 80 a3 c3 c0 00 00 00 00 00 cf aa 40
       -10055.0 3431.5
0001d0 00 00 00 00 80 a3 c3 c0 00 00 00 00 80 f3 b1 40
       -10055.0 4595.5
0001e0 00 00 00 00 80 46 c1 c0 00 00 00 00 80 5e b9 40
       -8845.0 6494.5
0001f0 00 00 00 00 80 e6 c6 c0 00 00 00 00 80 4f b2 40
       -11725.0 4687.5
000200 00 00 00 00 80 5d c3 c0 00 00 00 00 00 a3 a4 40
       -9915.0 2641.5
000210 00 00 00 00 80 e7 c0 c0 00 00 00 00 80 8d b3 40
       -8655.0 5005.5
000220 00 00 00 00 80 6d c2 c0 00 00 00 00 80 1b bb 40
       -9435.0 6939.5
000230 00 00 00 00 80 20 c9 c0 00 00 00 00 80 3b b2 40
       -12865.0 4667.5
000240 00 00 00 00 80 af c1 c0 00 00 00 00 00 c1 a9 40
       -9055.0 3296.5
000250 00 00 00 00 80 42 c0 c0 00 00 00 00 80 89 b2 40
       -8325.0 4745.5
000260 00 00 00 00 00 63 bf c0 00 00 00 00 80 9a b9 40
       -8035.0 6554.5
000270 00 00 00 00 80 b5 c5 c0 00 00 00 00 80 84 b4 40
       -11115.0 5252.5
