data/input_files/validation_params_00.npy (npy, 1408 bytes, 1 tensors)

array f8 [20, 8]
0	0xc0c3bfb648328e4e	-10111.424078292355
1	0xc034964b68b7ade0	-20.58708815082889
2	0xc0c3a147cfb1515a	-10050.561025776598
3	0xc07c92b7725b7ff2	-457.16978679411034
4	0xc0c298ad7caa6d49	-9521.355366996157
5	0x40a5644bd0c12e9f	2738.148077046338
6	0xc0c5a478c0cb8307	-11080.9433836355
7	0xc0a03d938138eb09	-2078.7880952631863
8	0xc0c263f620d49f71	-9415.922876909115
9	0xc083cbd28794c1f3	-633.477797662896
10	0xc0c317dc88116dae	-9775.722902468257
11	0xc0921e2401aeb494	-1159.5351626680103
12	0xc0c07ac51b0ce64c	-8437.539888012361
13	0x40a2e93b39eda5cb	2420.6156763329395
14	0xc0c7a10e873eba94	-12098.113502350905
15	0xc0a2fd1c65e793f0	-2430.5554649704063
16	0xc0c2343471b7de56	-9320.409720405161
17	0xc084c4332881753e	-664.5249796022324
18	0xc0c31ae1e834cd7a	-9781.76489887269
19	0xc083cca025e87d23	-633.5781973040761
20	0xc0c000b0c7d46642	-8193.381098318034
21	0x40a2f00e55d46cea	2424.0279985793068
22	0xc0c958e4b0422072	-12977.786628976672
23	0xc0a1102395a9210a	-2184.069501195224
24	0xc0c3343568bd5972	-9832.417258900332
25	0x406c53ee9c44cc10	226.6228772491163
26	0xc0c274c82ab7a0b4	-9449.563803628414
27	0xc092a3777f200515	-1192.8666958811857
28	0xc0c3439fba878a43	-9863.247879927168
29	0x40a485b691a82708	2626.856580023541
30	0xc0c64f026ca18b45	-11422.018940155986
31	0xc0a17bd12d8b90bd	-2237.9085506071265
32	0xc0c50bcdafb27a04	-10775.606924352243
33	0xc08ac0ff477bea0e	-856.1246480637362
34	0xc0c00fa8cabc99de	-8223.318687033778
35	0xc08f72f05b1f6f23	-1006.3673613029281
36	0xc0c0c96c69e97a96	-8594.846982178551
37	0x40a202e04206683f	2305.438003730989
38	0xc0c8fd67acd8cc5b	-12794.809962367804
39	0xc09e3a2e14301d28	-1934.5449988858982
40	0xc0c201a2309098d0	-9219.267107081047
41	0xc07fa095498b898a	-506.0364470911669
42	0xc0c0a31bb027800f	-8518.216313302544
43	0xc08169b89e9e9112	-557.2151462924978
44	0xc0c24c62cd17d192	-9368.771883942918
45	0x40a252e779f64c46	2345.452102371989
46	0xc0c818b531988b5b	-12337.415576046033
47	0xc09eb4a7831e4b63	-1965.1635861142647
48	0xc0c4a53cc1231db2	-10570.474644078731
49	0x40536ecc02646d90	77.731201742243
50	0xc0c036f14b2293ff	-8301.885105440391
51	0xc08ac5f9014dcc88	-856.746584518246
52	0xc0c01edf68446b11	-8253.745369484213
53	0x409feb17308b8ce2	2042.7726461224306
54	0xc0c8b75de60f92fa	-12654.73358339955
55	0xc09a2b52b4aed104	-1674.8307673754762
56	0xc0c3c050c819fd08	-10112.631106613684
57	0x403668592e56fc20	22.407610794292964
58	0xc0c33e2145e831b4	-9852.25994589259
59	0xc088710bb9050834	-782.1307239907387
60	0xc0c1e286ebde7350	-9157.054073149018
61	0x40a01548d83e7067	2058.642274810048
62	0xc0c95e0578efaa22	-12988.04275317962
63	0xc09d024027f5e7b5	-1856.562652437465
64	0xc0c1d7cbaacde488	-9135.591150032604
65	0xc07554b8f612b110	-341.29515654851366
66	0xc0c2a5f27658a635	-9547.894236642032
67	0xc07d952412b6a82e	-473.32130690908787
68	0xc0c0176910420787	-8238.820808652568
69	0x40a4ae0d37b949d5	2647.025815763724
70	0xc0c78cbe4b00e169	-12057.486663923324
71	0xc09ec7a8c416f0db	-1969.9148105225092
72	0xc0c2279d7431f97a	-9295.23010849649
73	0xc0879c4a18177b16	-755.5361787638128
74	0xc0c114e21f561291	-8745.766581305566
75	0xc08861e869c8971f	-780.2384830161208
76	0xc0c203aaccb2cbe7	-9223.33437190014
77	0x40a4f5ecc0056125	2682.9624025040707
78	0xc0c6dffa2ef2d2cb	-11711.9545577554
79	0xc0a12de6590c5cb7	-2198.9498981345346
80	0xc0c3fcc4fdf90592	-10233.539000632973
81	0xc06ea6aa4dd47654	-245.2082890653279
82	0xc0c249555c02e7e7	-9362.666870463594
83	0xc07da47768c89aca	-474.27915266381444
84	0xc0c10b72d4d7912d	-8726.897120424162
85	0x40a419283f9aa374	2572.5786102604416
86	0xc0c8ab1fc63c6ae0	-12630.248237182794
87	0xc0a07cdeabf4964e	-2110.4349056657293
88	0xc0c36d932fce6743	-9947.14989643137
89	0x404d5ba61f26c7f0	58.71600713151554
90	0xc0c36b329da8a414	-9942.395436363331
91	0xc083faf953014d86	-639.3717403508933
92	0xc0c17ab8a61ec91e	-8949.4425695879
93	0x40a4deba8fa35a98	2671.364377121743
94	0xc0c8e97d7f5c3946	-12754.980449226347
95	0xc09bda57b1ba231c	-1782.5856389125756
96	0xc0c411ad32cda1aa	-10275.353112892091
97	0xc073ff4ddea03c2a	-319.9565111407452
98	0xc0c0d6fdbac25f63	-8621.982261940551
99	0xc0855ea892c31f64	-683.8323111766772
100	0xc0c34f73e4d710f0	-9886.905421145697
101	0x40a09822a26f7b35	2124.067645534315
102	0xc0c76525d37f31ac	-11978.295516871694
103	0xc0a088cb56094b08	-2116.3971407798854
104	0xc0c40d2653abb120	-10266.299428426253
105	0xc072e64edc8a9f44	-302.3942532935073
106	0xc0c1bb10510e919c	-9078.127473660563
107	0xc0877b1422bdec36	-751.3848318898879
108	0xc0c165e0597a751a	-8907.752730662516
109	0x409f2c23cabf6f5a	1995.034953108951
110	0xc0c5d1233b498bb2	-11170.275246804438
111	0xc09ae87e1cdbfdae	-1722.1231569646438
112	0xc0c56bc0ad07838d	-10967.505280436739
113	0x406651668396a8c8	178.54376391816754
114	0xc0c254e5fcb816d8	-9385.796774874834
115	0xc08e74bd7ff55b2d	-974.5925292175722
116	0xc0c063174d47f8da	-8390.182045933256
117	0x40a0ef9681839e4e	2167.793956864428
118	0xc0c8b916d58bbea0	-12658.178391902999
119	0xc09fabc7a2e51032	-2026.9449573317656
120	0xc0c46445a9ce00f6	-10440.544244528264
121	0x40475a6f506d49b0	46.706522038806156
122	0xc0c2bf9c9c4aac6c	-9599.223519643965
123	0xc084d3a2be608d1d	-666.4544646781029
124	0xc0bff654a8c12742	-8182.330699989399
125	0x40a1aab074a12a83	2261.3446398128885
126	0xc0c703a9d06a2be8	-11783.32667281288
127	0xc09a0505bce80dc3	-1665.2556034334564
128	0xc0c54e3156372342	-10908.385443584648
129	0xc07888f5d86d5f34	-392.5600208542194
130	0xc0c30c7b33905d16	-9752.962511105969
131	0xc08d99812e9db951	-947.1880771944217
132	0xc0c1c22d05dc112d	-9092.351741321932
133	0x40a341fabc8d5be7	2464.989719788998
134	0xc0c8af1a764f8fc8	-12638.206735558706
135	0xc0a008b609f78897	-2052.3555447916256
136	0xc0c4e3f532ce53ce	-10695.915612975044
137	0xc050ef9d50bc2648	-67.74397676824549
138	0xc0c1dd3241cf2d7b	-9146.39263334008
139	0xc0869a7fa3bbacfa	-723.31232401487
140	0xc0c11a540a5fadec	-8756.656566581652
141	0x40a3c8f54488f798	2532.4790385057677
142	0xc0c924f78d607b4b	-12873.93400198002
143	0xc0a26276160eb441	-2353.2306370348965
144	0xc0c493aa7cdf2bef	-10535.331935783817
145	0xc071b78c77f18d7a	-283.47179407459737
146	0xc0c187642c5f0277	-8974.782604099468
147	0xc089f543c35115f6	-830.6580873808696
148	0xc0c2a7cf34768c06	-9551.618788545962
149	0x40a50aa7d9518d67	2693.327829884063
150	0xc0c720e1d63cbd82	-11841.764350502523
151	0xc0a32cf158919d9b	-2454.471378851403
152	0xc0c3cf97a0df8f25	-10143.184596962828
153	0xc07c4ab1e6226dc5	-452.668432363975
154	0xc0c278e4a1a03565	-9457.786182428428
155	0xc087ea112723fc05	-765.2583754359517
156	0xc0c36a181a1553ea	-9940.188295999502
157	0x40a28899e59cdd85	2372.300579931298
158	0xc0c7630f18cf1749	-11974.117944609041
159	0xc09c88addf97ef4c	-1826.1697982539945
